{"format": "graph-model", "generatedBy": "2.2.0", "convertedBy": "TensorFlow.js Converter v2.0.1.post1", "userDefinedMetadata": {"signature": {"inputs": {"input_9:0": {"name": "input_9:0", "dtype": "DT_FLOAT", "tensorShape": {"dim": [{"size": "-1"}, {"size": "512"}]}}, "input_11:0": {"name": "input_11:0", "dtype": "DT_FLOAT", "tensorShape": {"dim": [{"size": "-1"}, {"size": "512"}]}}, "input_13:0": {"name": "input_13:0", "dtype": "DT_FLOAT", "tensorShape": {"dim": [{"size": "-1"}, {"size": "64"}, {"size": "64"}, {"size": "1"}]}}, "input_8:0": {"name": "input_8:0", "dtype": "DT_FLOAT", "tensorShape": {"dim": [{"size": "-1"}, {"size": "512"}]}}, "input_10:0": {"name": "input_10:0", "dtype": "DT_FLOAT", "tensorShape": {"dim": [{"size": "-1"}, {"size": "512"}]}}, "input_12:0": {"name": "input_12:0", "dtype": "DT_FLOAT", "tensorShape": {"dim": [{"size": "-1"}, {"size": "512"}]}}}, "outputs": {"Identity:0": {"name": "Identity:0", "dtype": "DT_FLOAT", "tensorShape": {"dim": [{"size": "-1"}, {"size": "64"}, {"size": "64"}, {"size": "3"}]}}}}}, "modelTopology": {"node": [{"name": "input_10", "op": "Placeholder", "attr": {"dtype": {"type": "DT_FLOAT"}, "shape": {"shape": {"dim": [{"size": "-1"}, {"size": "512"}]}}}}, {"name": "input_11", "op": "Placeholder", "attr": {"dtype": {"type": "DT_FLOAT"}, "shape": {"shape": {"dim": [{"size": "-1"}, {"size": "512"}]}}}}, {"name": "input_12", "op": "Placeholder", "attr": {"dtype": {"type": "DT_FLOAT"}, "shape": {"shape": {"dim": [{"size": "-1"}, {"size": "512"}]}}}}, {"name": "input_13", "op": "Placeholder", "attr": {"dtype": {"type": "DT_FLOAT"}, "shape": {"shape": {"dim": [{"size": "-1"}, {"size": "64"}, {"size": "64"}, {"size": "1"}]}}}}, {"name": "input_8", "op": "Placeholder", "attr": {"dtype": {"type": "DT_FLOAT"}, "shape": {"shape": {"dim": [{"size": "-1"}, {"size": "512"}]}}}}, {"name": "input_9", "op": "Placeholder", "attr": {"dtype": {"type": "DT_FLOAT"}, "shape": {"shape": {"dim": [{"size": "-1"}, {"size": "512"}]}}}}, {"name": "Func/StatefulPartitionedCall/input_control_node/_0", "op": "NoOp", "input": ["^input_10", "^input_11", "^input_12", "^input_13", "^input_8", "^input_9"]}, {"name": "StatefulPartitionedCall/model_2/model_1/lambda_2/Const", "op": "Const", "input": ["^Func/StatefulPartitionedCall/input_control_node/_0"], "attr": {"value": {"tensor": {"dtype": "DT_INT32", "tensorShape": {"dim": [{"size": "2"}]}}}, "dtype": {"type": "DT_INT32"}}}, {"name": "Func/StatefulPartitionedCall/input/_75", "op": "Const", "input": ["^Func/StatefulPartitionedCall/input_control_node/_0"], "attr": {"value": {"tensor": {"dtype": "DT_FLOAT", "tensorShape": {"dim": [{"size": "512"}, {"size": "192"}]}}}, "dtype": {"type": "DT_FLOAT"}}}, {"name": "Func/StatefulPartitionedCall/input/_76", "op": "Const", "input": ["^Func/StatefulPartitionedCall/input_control_node/_0"], "attr": {"value": {"tensor": {"dtype": "DT_FLOAT", "tensorShape": {"dim": [{"size": "192"}]}}}, "dtype": {"type": "DT_FLOAT"}}}, {"name": "Func/StatefulPartitionedCall/input/_81", "op": "Const", "input": ["^Func/StatefulPartitionedCall/input_control_node/_0"], "attr": {"value": {"tensor": {"dtype": "DT_FLOAT", "tensorShape": {"dim": [{"size": "1"}, {"size": "1"}, {"size": "192"}, {"size": "3"}]}}}, "dtype": {"type": "DT_FLOAT"}}}, {"name": "StatefulPartitionedCall/model_2/model_1/lambda_5/Const", "op": "Const", "input": ["^Func/StatefulPartitionedCall/input_control_node/_0"], "attr": {"value": {"tensor": {"dtype": "DT_INT32", "tensorShape": {"dim": [{"size": "2"}]}}}, "dtype": {"type": "DT_INT32"}}}, {"name": "Func/StatefulPartitionedCall/input/_73", "op": "Const", "input": ["^Func/StatefulPartitionedCall/input_control_node/_0"], "attr": {"dtype": {"type": "DT_FLOAT"}, "value": {"tensor": {"dtype": "DT_FLOAT", "tensorShape": {"dim": [{"size": "512"}, {"size": "144"}]}}}}}, {"name": "Func/StatefulPartitionedCall/input/_74", "op": "Const", "input": ["^Func/StatefulPartitionedCall/input_control_node/_0"], "attr": {"value": {"tensor": {"dtype": "DT_FLOAT", "tensorShape": {"dim": [{"size": "144"}]}}}, "dtype": {"type": "DT_FLOAT"}}}, {"name": "Func/StatefulPartitionedCall/input/_80", "op": "Const", "input": ["^Func/StatefulPartitionedCall/input_control_node/_0"], "attr": {"value": {"tensor": {"dtype": "DT_FLOAT", "tensorShape": {"dim": [{"size": "1"}, {"size": "1"}, {"size": "144"}, {"size": "3"}]}}}, "dtype": {"type": "DT_FLOAT"}}}, {"name": "StatefulPartitionedCall/model_2/model_1/lambda_8/Const", "op": "Const", "input": ["^Func/StatefulPartitionedCall/input_control_node/_0"], "attr": {"value": {"tensor": {"dtype": "DT_INT32", "tensorShape": {"dim": [{"size": "2"}]}}}, "dtype": {"type": "DT_INT32"}}}, {"name": "Func/StatefulPartitionedCall/input/_71", "op": "Const", "input": ["^Func/StatefulPartitionedCall/input_control_node/_0"], "attr": {"dtype": {"type": "DT_FLOAT"}, "value": {"tensor": {"dtype": "DT_FLOAT", "tensorShape": {"dim": [{"size": "512"}, {"size": "96"}]}}}}}, {"name": "Func/StatefulPartitionedCall/input/_72", "op": "Const", "input": ["^Func/StatefulPartitionedCall/input_control_node/_0"], "attr": {"dtype": {"type": "DT_FLOAT"}, "value": {"tensor": {"dtype": "DT_FLOAT", "tensorShape": {"dim": [{"size": "96"}]}}}}}, {"name": "Func/StatefulPartitionedCall/input/_79", "op": "Const", "input": ["^Func/StatefulPartitionedCall/input_control_node/_0"], "attr": {"value": {"tensor": {"dtype": "DT_FLOAT", "tensorShape": {"dim": [{"size": "1"}, {"size": "1"}, {"size": "96"}, {"size": "3"}]}}}, "dtype": {"type": "DT_FLOAT"}}}, {"name": "Func/StatefulPartitionedCall/input/_69", "op": "Const", "input": ["^Func/StatefulPartitionedCall/input_control_node/_0"], "attr": {"dtype": {"type": "DT_FLOAT"}, "value": {"tensor": {"dtype": "DT_FLOAT", "tensorShape": {"dim": [{"size": "512"}, {"size": "48"}]}}}}}, {"name": "Func/StatefulPartitionedCall/input/_70", "op": "Const", "input": ["^Func/StatefulPartitionedCall/input_control_node/_0"], "attr": {"value": {"tensor": {"dtype": "DT_FLOAT", "tensorShape": {"dim": [{"size": "48"}]}}}, "dtype": {"type": "DT_FLOAT"}}}, {"name": "Func/StatefulPartitionedCall/input/_78", "op": "Const", "input": ["^Func/StatefulPartitionedCall/input_control_node/_0"], "attr": {"value": {"tensor": {"dtype": "DT_FLOAT", "tensorShape": {"dim": [{"size": "1"}, {"size": "1"}, {"size": "48"}, {"size": "3"}]}}}, "dtype": {"type": "DT_FLOAT"}}}, {"name": "Func/StatefulPartitionedCall/input/_67", "op": "Const", "input": ["^Func/StatefulPartitionedCall/input_control_node/_0"], "attr": {"value": {"tensor": {"dtype": "DT_FLOAT", "tensorShape": {"dim": [{"size": "512"}, {"size": "24"}]}}}, "dtype": {"type": "DT_FLOAT"}}}, {"name": "Func/StatefulPartitionedCall/input/_68", "op": "Const", "input": ["^Func/StatefulPartitionedCall/input_control_node/_0"], "attr": {"value": {"tensor": {"dtype": "DT_FLOAT", "tensorShape": {"dim": [{"size": "24"}]}}}, "dtype": {"type": "DT_FLOAT"}}}, {"name": "StatefulPartitionedCall/model_2/model_1/lambda_11/Const", "op": "Const", "input": ["^Func/StatefulPartitionedCall/input_control_node/_0"], "attr": {"dtype": {"type": "DT_INT32"}, "value": {"tensor": {"dtype": "DT_INT32", "tensorShape": {"dim": [{"size": "2"}]}}}}}, {"name": "StatefulPartitionedCall/model_2/model_1/lambda/strided_slice/stack", "op": "Const", "input": ["^Func/StatefulPartitionedCall/input_control_node/_0"], "attr": {"value": {"tensor": {"dtype": "DT_INT32", "tensorShape": {"dim": [{"size": "2"}]}}}, "dtype": {"type": "DT_INT32"}}}, {"name": "StatefulPartitionedCall/model_2/model_1/lambda/strided_slice/stack_1", "op": "Const", "input": ["^Func/StatefulPartitionedCall/input_control_node/_0"], "attr": {"value": {"tensor": {"dtype": "DT_INT32", "tensorShape": {"dim": [{"size": "2"}]}}}, "dtype": {"type": "DT_INT32"}}}, {"name": "StatefulPartitionedCall/model_2/model_1/lambda/strided_slice/stack_2", "op": "Const", "input": ["^Func/StatefulPartitionedCall/input_control_node/_0"], "attr": {"dtype": {"type": "DT_INT32"}, "value": {"tensor": {"dtype": "DT_INT32", "tensorShape": {"dim": [{"size": "2"}]}}}}}, {"name": "Func/StatefulPartitionedCall/input/_15", "op": "Const", "input": ["^Func/StatefulPartitionedCall/input_control_node/_0"], "attr": {"value": {"tensor": {"dtype": "DT_FLOAT", "tensorShape": {"dim": [{"size": "1"}, {"size": "1536"}]}}}, "dtype": {"type": "DT_FLOAT"}}}, {"name": "Func/StatefulPartitionedCall/input/_16", "op": "Const", "input": ["^Func/StatefulPartitionedCall/input_control_node/_0"], "attr": {"value": {"tensor": {"dtype": "DT_FLOAT", "tensorShape": {"dim": [{"size": "1536"}]}}}, "dtype": {"type": "DT_FLOAT"}}}, {"name": "StatefulPartitionedCall/model_2/model_1/reshape/Reshape/shape/1", "op": "Const", "input": ["^Func/StatefulPartitionedCall/input_control_node/_0"], "attr": {"dtype": {"type": "DT_INT32"}, "value": {"tensor": {"dtype": "DT_INT32", "tensorShape": {}}}}}, {"name": "StatefulPartitionedCall/model_2/model_1/reshape/Reshape/shape/3", "op": "Const", "input": ["^Func/StatefulPartitionedCall/input_control_node/_0"], "attr": {"value": {"tensor": {"dtype": "DT_INT32", "tensorShape": {}}}, "dtype": {"type": "DT_INT32"}}}, {"name": "Func/StatefulPartitionedCall/input/_19", "op": "Const", "input": ["^Func/StatefulPartitionedCall/input_control_node/_0"], "attr": {"value": {"tensor": {"dtype": "DT_FLOAT", "tensorShape": {"dim": [{"size": "3"}, {"size": "3"}, {"size": "96"}, {"size": "192"}]}}}, "dtype": {"type": "DT_FLOAT"}}}, {"name": "StatefulPartitionedCall/model_2/model_1/conv2d_mod_non_fused/ExpandDims_2", "op": "Const", "input": ["^Func/StatefulPartitionedCall/input_control_node/_0"], "attr": {"value": {"tensor": {"dtype": "DT_FLOAT", "tensorShape": {"dim": [{"size": "1"}, {"size": "3"}, {"size": "3"}, {"size": "96"}, {"size": "192"}]}}}, "dtype": {"type": "DT_FLOAT"}}}, {"name": "Func/StatefulPartitionedCall/input/_17", "op": "Const", "input": ["^Func/StatefulPartitionedCall/input_control_node/_0"], "attr": {"value": {"tensor": {"dtype": "DT_FLOAT", "tensorShape": {"dim": [{"size": "512"}, {"size": "96"}]}}}, "dtype": {"type": "DT_FLOAT"}}}, {"name": "Func/StatefulPartitionedCall/input/_18", "op": "Const", "input": ["^Func/StatefulPartitionedCall/input_control_node/_0"], "attr": {"value": {"tensor": {"dtype": "DT_FLOAT", "tensorShape": {"dim": [{"size": "96"}]}}}, "dtype": {"type": "DT_FLOAT"}}}, {"name": "Func/StatefulPartitionedCall/input/_20", "op": "Const", "input": ["^Func/StatefulPartitionedCall/input_control_node/_0"], "attr": {"value": {"tensor": {"dtype": "DT_FLOAT", "tensorShape": {"dim": [{"size": "1"}, {"size": "192"}]}}}, "dtype": {"type": "DT_FLOAT"}}}, {"name": "Func/StatefulPartitionedCall/input/_21", "op": "Const", "input": ["^Func/StatefulPartitionedCall/input_control_node/_0"], "attr": {"value": {"tensor": {"dtype": "DT_FLOAT", "tensorShape": {"dim": [{"size": "192"}]}}}, "dtype": {"type": "DT_FLOAT"}}}, {"name": "Func/StatefulPartitionedCall/input/_24", "op": "Const", "input": ["^Func/StatefulPartitionedCall/input_control_node/_0"], "attr": {"value": {"tensor": {"dtype": "DT_FLOAT", "tensorShape": {"dim": [{"size": "3"}, {"size": "3"}, {"size": "192"}, {"size": "192"}]}}}, "dtype": {"type": "DT_FLOAT"}}}, {"name": "StatefulPartitionedCall/model_2/model_1/conv2d_mod_non_fused_1/ExpandDims_2", "op": "Const", "input": ["^Func/StatefulPartitionedCall/input_control_node/_0"], "attr": {"dtype": {"type": "DT_FLOAT"}, "value": {"tensor": {"dtype": "DT_FLOAT", "tensorShape": {"dim": [{"size": "1"}, {"size": "3"}, {"size": "3"}, {"size": "192"}, {"size": "192"}]}}}}}, {"name": "Func/StatefulPartitionedCall/input/_22", "op": "Const", "input": ["^Func/StatefulPartitionedCall/input_control_node/_0"], "attr": {"dtype": {"type": "DT_FLOAT"}, "value": {"tensor": {"dtype": "DT_FLOAT", "tensorShape": {"dim": [{"size": "512"}, {"size": "192"}]}}}}}, {"name": "Func/StatefulPartitionedCall/input/_23", "op": "Const", "input": ["^Func/StatefulPartitionedCall/input_control_node/_0"], "attr": {"value": {"tensor": {"dtype": "DT_FLOAT", "tensorShape": {"dim": [{"size": "192"}]}}}, "dtype": {"type": "DT_FLOAT"}}}, {"name": "StatefulPartitionedCall/model_2/model_1/conv2d_mod_non_fused/Reshape/shape", "op": "Const", "input": ["^Func/StatefulPartitionedCall/input_control_node/_0"], "attr": {"dtype": {"type": "DT_INT32"}, "value": {"tensor": {"dtype": "DT_INT32", "tensorShape": {"dim": [{"size": "4"}]}}}}}, {"name": "Func/StatefulPartitionedCall/input/_25", "op": "Const", "input": ["^Func/StatefulPartitionedCall/input_control_node/_0"], "attr": {"value": {"tensor": {"dtype": "DT_FLOAT", "tensorShape": {"dim": [{"size": "1"}, {"size": "192"}]}}}, "dtype": {"type": "DT_FLOAT"}}}, {"name": "StatefulPartitionedCall/model_2/model_1/lambda_1/strided_slice/stack_1", "op": "Const", "input": ["^Func/StatefulPartitionedCall/input_control_node/_0"], "attr": {"value": {"tensor": {"dtype": "DT_INT32", "tensorShape": {"dim": [{"size": "4"}]}}}, "dtype": {"type": "DT_INT32"}}}, {"name": "StatefulPartitionedCall/model_2/model_1/dense_8/Tensordot/Const_2", "op": "Const", "input": ["^Func/StatefulPartitionedCall/input_control_node/_0"], "attr": {"value": {"tensor": {"dtype": "DT_INT32", "tensorShape": {"dim": [{"size": "1"}]}}}, "dtype": {"type": "DT_INT32"}}}, {"name": "Func/StatefulPartitionedCall/input/_26", "op": "Const", "input": ["^Func/StatefulPartitionedCall/input_control_node/_0"], "attr": {"value": {"tensor": {"dtype": "DT_FLOAT", "tensorShape": {"dim": [{"size": "192"}]}}}, "dtype": {"type": "DT_FLOAT"}}}, {"name": "Func/StatefulPartitionedCall/input/_29", "op": "Const", "input": ["^Func/StatefulPartitionedCall/input_control_node/_0"], "attr": {"value": {"tensor": {"dtype": "DT_FLOAT", "tensorShape": {"dim": [{"size": "3"}, {"size": "3"}, {"size": "192"}, {"size": "144"}]}}}, "dtype": {"type": "DT_FLOAT"}}}, {"name": "StatefulPartitionedCall/model_2/model_1/conv2d_mod_non_fused_3/ExpandDims_2", "op": "Const", "input": ["^Func/StatefulPartitionedCall/input_control_node/_0"], "attr": {"value": {"tensor": {"dtype": "DT_FLOAT", "tensorShape": {"dim": [{"size": "1"}, {"size": "3"}, {"size": "3"}, {"size": "192"}, {"size": "144"}]}}}, "dtype": {"type": "DT_FLOAT"}}}, {"name": "Func/StatefulPartitionedCall/input/_27", "op": "Const", "input": ["^Func/StatefulPartitionedCall/input_control_node/_0"], "attr": {"value": {"tensor": {"dtype": "DT_FLOAT", "tensorShape": {"dim": [{"size": "512"}, {"size": "192"}]}}}, "dtype": {"type": "DT_FLOAT"}}}, {"name": "Func/StatefulPartitionedCall/input/_28", "op": "Const", "input": ["^Func/StatefulPartitionedCall/input_control_node/_0"], "attr": {"value": {"tensor": {"dtype": "DT_FLOAT", "tensorShape": {"dim": [{"size": "192"}]}}}, "dtype": {"type": "DT_FLOAT"}}}, {"name": "Func/StatefulPartitionedCall/input/_30", "op": "Const", "input": ["^Func/StatefulPartitionedCall/input_control_node/_0"], "attr": {"dtype": {"type": "DT_FLOAT"}, "value": {"tensor": {"dtype": "DT_FLOAT", "tensorShape": {"dim": [{"size": "1"}, {"size": "144"}]}}}}}, {"name": "Func/StatefulPartitionedCall/input/_31", "op": "Const", "input": ["^Func/StatefulPartitionedCall/input_control_node/_0"], "attr": {"value": {"tensor": {"dtype": "DT_FLOAT", "tensorShape": {"dim": [{"size": "144"}]}}}, "dtype": {"type": "DT_FLOAT"}}}, {"name": "Func/StatefulPartitionedCall/input/_34", "op": "Const", "input": ["^Func/StatefulPartitionedCall/input_control_node/_0"], "attr": {"value": {"tensor": {"dtype": "DT_FLOAT", "tensorShape": {"dim": [{"size": "3"}, {"size": "3"}, {"size": "144"}, {"size": "144"}]}}}, "dtype": {"type": "DT_FLOAT"}}}, {"name": "StatefulPartitionedCall/model_2/model_1/conv2d_mod_non_fused_4/ExpandDims_2", "op": "Const", "input": ["^Func/StatefulPartitionedCall/input_control_node/_0"], "attr": {"dtype": {"type": "DT_FLOAT"}, "value": {"tensor": {"dtype": "DT_FLOAT", "tensorShape": {"dim": [{"size": "1"}, {"size": "3"}, {"size": "3"}, {"size": "144"}, {"size": "144"}]}}}}}, {"name": "Func/StatefulPartitionedCall/input/_32", "op": "Const", "input": ["^Func/StatefulPartitionedCall/input_control_node/_0"], "attr": {"value": {"tensor": {"dtype": "DT_FLOAT", "tensorShape": {"dim": [{"size": "512"}, {"size": "144"}]}}}, "dtype": {"type": "DT_FLOAT"}}}, {"name": "Func/StatefulPartitionedCall/input/_33", "op": "Const", "input": ["^Func/StatefulPartitionedCall/input_control_node/_0"], "attr": {"value": {"tensor": {"dtype": "DT_FLOAT", "tensorShape": {"dim": [{"size": "144"}]}}}, "dtype": {"type": "DT_FLOAT"}}}, {"name": "StatefulPartitionedCall/model_2/model_1/conv2d_mod_non_fused_3/Reshape/shape", "op": "Const", "input": ["^Func/StatefulPartitionedCall/input_control_node/_0"], "attr": {"dtype": {"type": "DT_INT32"}, "value": {"tensor": {"dtype": "DT_INT32", "tensorShape": {"dim": [{"size": "4"}]}}}}}, {"name": "Func/StatefulPartitionedCall/input/_35", "op": "Const", "input": ["^Func/StatefulPartitionedCall/input_control_node/_0"], "attr": {"value": {"tensor": {"dtype": "DT_FLOAT", "tensorShape": {"dim": [{"size": "1"}, {"size": "144"}]}}}, "dtype": {"type": "DT_FLOAT"}}}, {"name": "StatefulPartitionedCall/model_2/model_1/lambda_4/strided_slice/stack_1", "op": "Const", "input": ["^Func/StatefulPartitionedCall/input_control_node/_0"], "attr": {"value": {"tensor": {"dtype": "DT_INT32", "tensorShape": {"dim": [{"size": "4"}]}}}, "dtype": {"type": "DT_INT32"}}}, {"name": "StatefulPartitionedCall/model_2/model_1/dense_13/Tensordot/Const_2", "op": "Const", "input": ["^Func/StatefulPartitionedCall/input_control_node/_0"], "attr": {"value": {"tensor": {"dtype": "DT_INT32", "tensorShape": {"dim": [{"size": "1"}]}}}, "dtype": {"type": "DT_INT32"}}}, {"name": "Func/StatefulPartitionedCall/input/_36", "op": "Const", "input": ["^Func/StatefulPartitionedCall/input_control_node/_0"], "attr": {"value": {"tensor": {"dtype": "DT_FLOAT", "tensorShape": {"dim": [{"size": "144"}]}}}, "dtype": {"type": "DT_FLOAT"}}}, {"name": "Func/StatefulPartitionedCall/input/_39", "op": "Const", "input": ["^Func/StatefulPartitionedCall/input_control_node/_0"], "attr": {"value": {"tensor": {"dtype": "DT_FLOAT", "tensorShape": {"dim": [{"size": "3"}, {"size": "3"}, {"size": "144"}, {"size": "96"}]}}}, "dtype": {"type": "DT_FLOAT"}}}, {"name": "StatefulPartitionedCall/model_2/model_1/conv2d_mod_non_fused_6/ExpandDims_2", "op": "Const", "input": ["^Func/StatefulPartitionedCall/input_control_node/_0"], "attr": {"value": {"tensor": {"dtype": "DT_FLOAT", "tensorShape": {"dim": [{"size": "1"}, {"size": "3"}, {"size": "3"}, {"size": "144"}, {"size": "96"}]}}}, "dtype": {"type": "DT_FLOAT"}}}, {"name": "Func/StatefulPartitionedCall/input/_37", "op": "Const", "input": ["^Func/StatefulPartitionedCall/input_control_node/_0"], "attr": {"value": {"tensor": {"dtype": "DT_FLOAT", "tensorShape": {"dim": [{"size": "512"}, {"size": "144"}]}}}, "dtype": {"type": "DT_FLOAT"}}}, {"name": "Func/StatefulPartitionedCall/input/_38", "op": "Const", "input": ["^Func/StatefulPartitionedCall/input_control_node/_0"], "attr": {"value": {"tensor": {"dtype": "DT_FLOAT", "tensorShape": {"dim": [{"size": "144"}]}}}, "dtype": {"type": "DT_FLOAT"}}}, {"name": "Func/StatefulPartitionedCall/input/_40", "op": "Const", "input": ["^Func/StatefulPartitionedCall/input_control_node/_0"], "attr": {"dtype": {"type": "DT_FLOAT"}, "value": {"tensor": {"dtype": "DT_FLOAT", "tensorShape": {"dim": [{"size": "1"}, {"size": "96"}]}}}}}, {"name": "Func/StatefulPartitionedCall/input/_41", "op": "Const", "input": ["^Func/StatefulPartitionedCall/input_control_node/_0"], "attr": {"dtype": {"type": "DT_FLOAT"}, "value": {"tensor": {"dtype": "DT_FLOAT", "tensorShape": {"dim": [{"size": "96"}]}}}}}, {"name": "Func/StatefulPartitionedCall/input/_44", "op": "Const", "input": ["^Func/StatefulPartitionedCall/input_control_node/_0"], "attr": {"value": {"tensor": {"dtype": "DT_FLOAT", "tensorShape": {"dim": [{"size": "3"}, {"size": "3"}, {"size": "96"}, {"size": "96"}]}}}, "dtype": {"type": "DT_FLOAT"}}}, {"name": "StatefulPartitionedCall/model_2/model_1/conv2d_mod_non_fused_7/ExpandDims_2", "op": "Const", "input": ["^Func/StatefulPartitionedCall/input_control_node/_0"], "attr": {"value": {"tensor": {"dtype": "DT_FLOAT", "tensorShape": {"dim": [{"size": "1"}, {"size": "3"}, {"size": "3"}, {"size": "96"}, {"size": "96"}]}}}, "dtype": {"type": "DT_FLOAT"}}}, {"name": "Func/StatefulPartitionedCall/input/_42", "op": "Const", "input": ["^Func/StatefulPartitionedCall/input_control_node/_0"], "attr": {"dtype": {"type": "DT_FLOAT"}, "value": {"tensor": {"dtype": "DT_FLOAT", "tensorShape": {"dim": [{"size": "512"}, {"size": "96"}]}}}}}, {"name": "Func/StatefulPartitionedCall/input/_43", "op": "Const", "input": ["^Func/StatefulPartitionedCall/input_control_node/_0"], "attr": {"dtype": {"type": "DT_FLOAT"}, "value": {"tensor": {"dtype": "DT_FLOAT", "tensorShape": {"dim": [{"size": "96"}]}}}}}, {"name": "StatefulPartitionedCall/model_2/model_1/conv2d_mod_non_fused_6/Reshape/shape", "op": "Const", "input": ["^Func/StatefulPartitionedCall/input_control_node/_0"], "attr": {"value": {"tensor": {"dtype": "DT_INT32", "tensorShape": {"dim": [{"size": "4"}]}}}, "dtype": {"type": "DT_INT32"}}}, {"name": "Func/StatefulPartitionedCall/input/_45", "op": "Const", "input": ["^Func/StatefulPartitionedCall/input_control_node/_0"], "attr": {"value": {"tensor": {"dtype": "DT_FLOAT", "tensorShape": {"dim": [{"size": "1"}, {"size": "96"}]}}}, "dtype": {"type": "DT_FLOAT"}}}, {"name": "StatefulPartitionedCall/model_2/model_1/lambda_7/strided_slice/stack_1", "op": "Const", "input": ["^Func/StatefulPartitionedCall/input_control_node/_0"], "attr": {"dtype": {"type": "DT_INT32"}, "value": {"tensor": {"dtype": "DT_INT32", "tensorShape": {"dim": [{"size": "4"}]}}}}}, {"name": "StatefulPartitionedCall/model_2/model_1/dense_18/Tensordot/Const_2", "op": "Const", "input": ["^Func/StatefulPartitionedCall/input_control_node/_0"], "attr": {"value": {"tensor": {"dtype": "DT_INT32", "tensorShape": {"dim": [{"size": "1"}]}}}, "dtype": {"type": "DT_INT32"}}}, {"name": "Func/StatefulPartitionedCall/input/_46", "op": "Const", "input": ["^Func/StatefulPartitionedCall/input_control_node/_0"], "attr": {"dtype": {"type": "DT_FLOAT"}, "value": {"tensor": {"dtype": "DT_FLOAT", "tensorShape": {"dim": [{"size": "96"}]}}}}}, {"name": "Func/StatefulPartitionedCall/input/_49", "op": "Const", "input": ["^Func/StatefulPartitionedCall/input_control_node/_0"], "attr": {"value": {"tensor": {"dtype": "DT_FLOAT", "tensorShape": {"dim": [{"size": "3"}, {"size": "3"}, {"size": "96"}, {"size": "48"}]}}}, "dtype": {"type": "DT_FLOAT"}}}, {"name": "StatefulPartitionedCall/model_2/model_1/conv2d_mod_non_fused_9/ExpandDims_2", "op": "Const", "input": ["^Func/StatefulPartitionedCall/input_control_node/_0"], "attr": {"value": {"tensor": {"dtype": "DT_FLOAT", "tensorShape": {"dim": [{"size": "1"}, {"size": "3"}, {"size": "3"}, {"size": "96"}, {"size": "48"}]}}}, "dtype": {"type": "DT_FLOAT"}}}, {"name": "Func/StatefulPartitionedCall/input/_47", "op": "Const", "input": ["^Func/StatefulPartitionedCall/input_control_node/_0"], "attr": {"dtype": {"type": "DT_FLOAT"}, "value": {"tensor": {"dtype": "DT_FLOAT", "tensorShape": {"dim": [{"size": "512"}, {"size": "96"}]}}}}}, {"name": "Func/StatefulPartitionedCall/input/_48", "op": "Const", "input": ["^Func/StatefulPartitionedCall/input_control_node/_0"], "attr": {"dtype": {"type": "DT_FLOAT"}, "value": {"tensor": {"dtype": "DT_FLOAT", "tensorShape": {"dim": [{"size": "96"}]}}}}}, {"name": "Func/StatefulPartitionedCall/input/_50", "op": "Const", "input": ["^Func/StatefulPartitionedCall/input_control_node/_0"], "attr": {"value": {"tensor": {"dtype": "DT_FLOAT", "tensorShape": {"dim": [{"size": "1"}, {"size": "48"}]}}}, "dtype": {"type": "DT_FLOAT"}}}, {"name": "Func/StatefulPartitionedCall/input/_51", "op": "Const", "input": ["^Func/StatefulPartitionedCall/input_control_node/_0"], "attr": {"dtype": {"type": "DT_FLOAT"}, "value": {"tensor": {"dtype": "DT_FLOAT", "tensorShape": {"dim": [{"size": "48"}]}}}}}, {"name": "Func/StatefulPartitionedCall/input/_54", "op": "Const", "input": ["^Func/StatefulPartitionedCall/input_control_node/_0"], "attr": {"value": {"tensor": {"dtype": "DT_FLOAT", "tensorShape": {"dim": [{"size": "3"}, {"size": "3"}, {"size": "48"}, {"size": "48"}]}}}, "dtype": {"type": "DT_FLOAT"}}}, {"name": "StatefulPartitionedCall/model_2/model_1/conv2d_mod_non_fused_10/ExpandDims_2", "op": "Const", "input": ["^Func/StatefulPartitionedCall/input_control_node/_0"], "attr": {"value": {"tensor": {"dtype": "DT_FLOAT", "tensorShape": {"dim": [{"size": "1"}, {"size": "3"}, {"size": "3"}, {"size": "48"}, {"size": "48"}]}}}, "dtype": {"type": "DT_FLOAT"}}}, {"name": "Func/StatefulPartitionedCall/input/_52", "op": "Const", "input": ["^Func/StatefulPartitionedCall/input_control_node/_0"], "attr": {"dtype": {"type": "DT_FLOAT"}, "value": {"tensor": {"dtype": "DT_FLOAT", "tensorShape": {"dim": [{"size": "512"}, {"size": "48"}]}}}}}, {"name": "Func/StatefulPartitionedCall/input/_53", "op": "Const", "input": ["^Func/StatefulPartitionedCall/input_control_node/_0"], "attr": {"value": {"tensor": {"dtype": "DT_FLOAT", "tensorShape": {"dim": [{"size": "48"}]}}}, "dtype": {"type": "DT_FLOAT"}}}, {"name": "StatefulPartitionedCall/model_2/model_1/conv2d_mod_non_fused_9/Reshape/shape", "op": "Const", "input": ["^Func/StatefulPartitionedCall/input_control_node/_0"], "attr": {"value": {"tensor": {"dtype": "DT_INT32", "tensorShape": {"dim": [{"size": "4"}]}}}, "dtype": {"type": "DT_INT32"}}}, {"name": "Func/StatefulPartitionedCall/input/_55", "op": "Const", "input": ["^Func/StatefulPartitionedCall/input_control_node/_0"], "attr": {"value": {"tensor": {"dtype": "DT_FLOAT", "tensorShape": {"dim": [{"size": "1"}, {"size": "48"}]}}}, "dtype": {"type": "DT_FLOAT"}}}, {"name": "StatefulPartitionedCall/model_2/model_1/lambda_10/strided_slice/stack_1", "op": "Const", "input": ["^Func/StatefulPartitionedCall/input_control_node/_0"], "attr": {"value": {"tensor": {"dtype": "DT_INT32", "tensorShape": {"dim": [{"size": "4"}]}}}, "dtype": {"type": "DT_INT32"}}}, {"name": "StatefulPartitionedCall/model_2/model_1/dense_23/Tensordot/Const_2", "op": "Const", "input": ["^Func/StatefulPartitionedCall/input_control_node/_0"], "attr": {"dtype": {"type": "DT_INT32"}, "value": {"tensor": {"dtype": "DT_INT32", "tensorShape": {"dim": [{"size": "1"}]}}}}}, {"name": "Func/StatefulPartitionedCall/input/_56", "op": "Const", "input": ["^Func/StatefulPartitionedCall/input_control_node/_0"], "attr": {"value": {"tensor": {"dtype": "DT_FLOAT", "tensorShape": {"dim": [{"size": "48"}]}}}, "dtype": {"type": "DT_FLOAT"}}}, {"name": "Func/StatefulPartitionedCall/input/_59", "op": "Const", "input": ["^Func/StatefulPartitionedCall/input_control_node/_0"], "attr": {"value": {"tensor": {"dtype": "DT_FLOAT", "tensorShape": {"dim": [{"size": "3"}, {"size": "3"}, {"size": "48"}, {"size": "24"}]}}}, "dtype": {"type": "DT_FLOAT"}}}, {"name": "StatefulPartitionedCall/model_2/model_1/conv2d_mod_non_fused_12/ExpandDims_2", "op": "Const", "input": ["^Func/StatefulPartitionedCall/input_control_node/_0"], "attr": {"value": {"tensor": {"dtype": "DT_FLOAT", "tensorShape": {"dim": [{"size": "1"}, {"size": "3"}, {"size": "3"}, {"size": "48"}, {"size": "24"}]}}}, "dtype": {"type": "DT_FLOAT"}}}, {"name": "Func/StatefulPartitionedCall/input/_57", "op": "Const", "input": ["^Func/StatefulPartitionedCall/input_control_node/_0"], "attr": {"value": {"tensor": {"dtype": "DT_FLOAT", "tensorShape": {"dim": [{"size": "512"}, {"size": "48"}]}}}, "dtype": {"type": "DT_FLOAT"}}}, {"name": "Func/StatefulPartitionedCall/input/_58", "op": "Const", "input": ["^Func/StatefulPartitionedCall/input_control_node/_0"], "attr": {"value": {"tensor": {"dtype": "DT_FLOAT", "tensorShape": {"dim": [{"size": "48"}]}}}, "dtype": {"type": "DT_FLOAT"}}}, {"name": "Func/StatefulPartitionedCall/input/_60", "op": "Const", "input": ["^Func/StatefulPartitionedCall/input_control_node/_0"], "attr": {"value": {"tensor": {"dtype": "DT_FLOAT", "tensorShape": {"dim": [{"size": "1"}, {"size": "24"}]}}}, "dtype": {"type": "DT_FLOAT"}}}, {"name": "Func/StatefulPartitionedCall/input/_61", "op": "Const", "input": ["^Func/StatefulPartitionedCall/input_control_node/_0"], "attr": {"value": {"tensor": {"dtype": "DT_FLOAT", "tensorShape": {"dim": [{"size": "24"}]}}}, "dtype": {"type": "DT_FLOAT"}}}, {"name": "Func/StatefulPartitionedCall/input/_64", "op": "Const", "input": ["^Func/StatefulPartitionedCall/input_control_node/_0"], "attr": {"dtype": {"type": "DT_FLOAT"}, "value": {"tensor": {"dtype": "DT_FLOAT", "tensorShape": {"dim": [{"size": "3"}, {"size": "3"}, {"size": "24"}, {"size": "24"}]}}}}}, {"name": "StatefulPartitionedCall/model_2/model_1/conv2d_mod_non_fused/add_1/y", "op": "Const", "input": ["^Func/StatefulPartitionedCall/input_control_node/_0"], "attr": {"dtype": {"type": "DT_FLOAT"}, "value": {"tensor": {"dtype": "DT_FLOAT", "tensorShape": {}}}}}, {"name": "StatefulPartitionedCall/model_2/model_1/conv2d_mod_non_fused_13/ExpandDims_2", "op": "Const", "input": ["^Func/StatefulPartitionedCall/input_control_node/_0"], "attr": {"dtype": {"type": "DT_FLOAT"}, "value": {"tensor": {"dtype": "DT_FLOAT", "tensorShape": {"dim": [{"size": "1"}, {"size": "3"}, {"size": "3"}, {"size": "24"}, {"size": "24"}]}}}}}, {"name": "StatefulPartitionedCall/model_2/model_1/conv2d_mod_non_fused_2/add/y", "op": "Const", "input": ["^Func/StatefulPartitionedCall/input_control_node/_0"], "attr": {"value": {"tensor": {"dtype": "DT_FLOAT", "tensorShape": {}}}, "dtype": {"type": "DT_FLOAT"}}}, {"name": "Func/StatefulPartitionedCall/input/_7", "op": "Const", "input": ["^Func/StatefulPartitionedCall/input_control_node/_0"], "attr": {"value": {"tensor": {"dtype": "DT_FLOAT", "tensorShape": {"dim": [{"size": "512"}, {"size": "512"}]}}}, "dtype": {"type": "DT_FLOAT"}}}, {"name": "Func/StatefulPartitionedCall/input/_8", "op": "Const", "input": ["^Func/StatefulPartitionedCall/input_control_node/_0"], "attr": {"value": {"tensor": {"dtype": "DT_FLOAT", "tensorShape": {"dim": [{"size": "512"}]}}}, "dtype": {"type": "DT_FLOAT"}}}, {"name": "Func/StatefulPartitionedCall/input/_9", "op": "Const", "input": ["^Func/StatefulPartitionedCall/input_control_node/_0"], "attr": {"dtype": {"type": "DT_FLOAT"}, "value": {"tensor": {"dtype": "DT_FLOAT", "tensorShape": {"dim": [{"size": "512"}, {"size": "512"}]}}}}}, {"name": "Func/StatefulPartitionedCall/input/_10", "op": "Const", "input": ["^Func/StatefulPartitionedCall/input_control_node/_0"], "attr": {"value": {"tensor": {"dtype": "DT_FLOAT", "tensorShape": {"dim": [{"size": "512"}]}}}, "dtype": {"type": "DT_FLOAT"}}}, {"name": "Func/StatefulPartitionedCall/input/_11", "op": "Const", "input": ["^Func/StatefulPartitionedCall/input_control_node/_0"], "attr": {"dtype": {"type": "DT_FLOAT"}, "value": {"tensor": {"dtype": "DT_FLOAT", "tensorShape": {"dim": [{"size": "512"}, {"size": "512"}]}}}}}, {"name": "Func/StatefulPartitionedCall/input/_12", "op": "Const", "input": ["^Func/StatefulPartitionedCall/input_control_node/_0"], "attr": {"value": {"tensor": {"dtype": "DT_FLOAT", "tensorShape": {"dim": [{"size": "512"}]}}}, "dtype": {"type": "DT_FLOAT"}}}, {"name": "Func/StatefulPartitionedCall/input/_13", "op": "Const", "input": ["^Func/StatefulPartitionedCall/input_control_node/_0"], "attr": {"dtype": {"type": "DT_FLOAT"}, "value": {"tensor": {"dtype": "DT_FLOAT", "tensorShape": {"dim": [{"size": "512"}, {"size": "512"}]}}}}}, {"name": "Func/StatefulPartitionedCall/input/_14", "op": "Const", "input": ["^Func/StatefulPartitionedCall/input_control_node/_0"], "attr": {"value": {"tensor": {"dtype": "DT_FLOAT", "tensorShape": {"dim": [{"size": "512"}]}}}, "dtype": {"type": "DT_FLOAT"}}}, {"name": "StatefulPartitionedCall/model_2/model_1/lambda_15/add/y", "op": "Const", "input": ["^Func/StatefulPartitionedCall/input_control_node/_0"], "attr": {"dtype": {"type": "DT_FLOAT"}, "value": {"tensor": {"dtype": "DT_FLOAT", "tensorShape": {}}}}}, {"name": "Func/StatefulPartitionedCall/input/_62", "op": "Const", "input": ["^Func/StatefulPartitionedCall/input_control_node/_0"], "attr": {"dtype": {"type": "DT_FLOAT"}, "value": {"tensor": {"dtype": "DT_FLOAT", "tensorShape": {"dim": [{"size": "512"}, {"size": "24"}]}}}}}, {"name": "Func/StatefulPartitionedCall/input/_63", "op": "Const", "input": ["^Func/StatefulPartitionedCall/input_control_node/_0"], "attr": {"value": {"tensor": {"dtype": "DT_FLOAT", "tensorShape": {"dim": [{"size": "24"}]}}}, "dtype": {"type": "DT_FLOAT"}}}, {"name": "StatefulPartitionedCall/model_2/model_1/conv2d_mod_non_fused_2/ExpandDims/dim", "op": "Const", "input": ["^Func/StatefulPartitionedCall/input_control_node/_0"], "attr": {"dtype": {"type": "DT_INT32"}, "value": {"tensor": {"dtype": "DT_INT32", "tensorShape": {}}}}}, {"name": "StatefulPartitionedCall/model_2/model_1/conv2d_mod_non_fused/ExpandDims_3/dim", "op": "Const", "input": ["^Func/StatefulPartitionedCall/input_control_node/_0"], "attr": {"dtype": {"type": "DT_INT32"}, "value": {"tensor": {"dtype": "DT_INT32", "tensorShape": {}}}}}, {"name": "StatefulPartitionedCall/model_2/model_1/conv2d_mod_non_fused/Sum/reduction_indices", "op": "Const", "input": ["^Func/StatefulPartitionedCall/input_control_node/_0"], "attr": {"value": {"tensor": {"dtype": "DT_INT32", "tensorShape": {"dim": [{"size": "3"}]}}}, "dtype": {"type": "DT_INT32"}}}, {"name": "StatefulPartitionedCall/model_2/model_1/conv2d_mod_non_fused/Const_1", "op": "Const", "input": ["^Func/StatefulPartitionedCall/input_control_node/_0"], "attr": {"dtype": {"type": "DT_FLOAT"}, "value": {"tensor": {"dtype": "DT_FLOAT", "tensorShape": {}}}}}, {"name": "StatefulPartitionedCall/model_2/model_1/lambda/mul/y", "op": "Const", "input": ["^Func/StatefulPartitionedCall/input_control_node/_0"], "attr": {"value": {"tensor": {"dtype": "DT_FLOAT", "tensorShape": {}}}, "dtype": {"type": "DT_FLOAT"}}}, {"name": "StatefulPartitionedCall/model_2/model_1/conv2d_mod_non_fused_12/Reshape/shape", "op": "Const", "input": ["^Func/StatefulPartitionedCall/input_control_node/_0"], "attr": {"value": {"tensor": {"dtype": "DT_INT32", "tensorShape": {"dim": [{"size": "4"}]}}}, "dtype": {"type": "DT_INT32"}}}, {"name": "StatefulPartitionedCall/model_2/model_1/reshape/strided_slice/stack", "op": "Const", "input": ["^Func/StatefulPartitionedCall/input_control_node/_0"], "attr": {"value": {"tensor": {"dtype": "DT_INT32", "tensorShape": {"dim": [{"size": "1"}]}}}, "dtype": {"type": "DT_INT32"}}}, {"name": "Func/StatefulPartitionedCall/input/_65", "op": "Const", "input": ["^Func/StatefulPartitionedCall/input_control_node/_0"], "attr": {"value": {"tensor": {"dtype": "DT_FLOAT", "tensorShape": {"dim": [{"size": "1"}, {"size": "24"}]}}}, "dtype": {"type": "DT_FLOAT"}}}, {"name": "Func/StatefulPartitionedCall/input/_6", "op": "Identity", "input": ["input_13", "^Func/StatefulPartitionedCall/input_control_node/_0"], "attr": {"T": {"type": "DT_FLOAT"}}}, {"name": "StatefulPartitionedCall/model_2/model_1/lambda_1/strided_slice/stack", "op": "Const", "input": ["^Func/StatefulPartitionedCall/input_control_node/_0"], "attr": {"dtype": {"type": "DT_INT32"}, "value": {"tensor": {"dtype": "DT_INT32", "tensorShape": {"dim": [{"size": "4"}]}}}}}, {"name": "StatefulPartitionedCall/model_2/model_1/lambda_13/strided_slice/stack_1", "op": "Const", "input": ["^Func/StatefulPartitionedCall/input_control_node/_0"], "attr": {"value": {"tensor": {"dtype": "DT_INT32", "tensorShape": {"dim": [{"size": "4"}]}}}, "dtype": {"type": "DT_INT32"}}}, {"name": "StatefulPartitionedCall/model_2/model_1/lambda_1/strided_slice/stack_2", "op": "Const", "input": ["^Func/StatefulPartitionedCall/input_control_node/_0"], "attr": {"value": {"tensor": {"dtype": "DT_INT32", "tensorShape": {"dim": [{"size": "4"}]}}}, "dtype": {"type": "DT_INT32"}}}, {"name": "StatefulPartitionedCall/model_2/model_1/dense_8/Tensordot/free", "op": "Const", "input": ["^Func/StatefulPartitionedCall/input_control_node/_0"], "attr": {"dtype": {"type": "DT_INT32"}, "value": {"tensor": {"dtype": "DT_INT32", "tensorShape": {"dim": [{"size": "3"}]}}}}}, {"name": "StatefulPartitionedCall/model_2/model_1/dense_28/Tensordot/Const_2", "op": "Const", "input": ["^Func/StatefulPartitionedCall/input_control_node/_0"], "attr": {"value": {"tensor": {"dtype": "DT_INT32", "tensorShape": {"dim": [{"size": "1"}]}}}, "dtype": {"type": "DT_INT32"}}}, {"name": "StatefulPartitionedCall/model_2/model_1/dense_8/Tensordot/concat/axis", "op": "Const", "input": ["^Func/StatefulPartitionedCall/input_control_node/_0"], "attr": {"value": {"tensor": {"dtype": "DT_INT32", "tensorShape": {}}}, "dtype": {"type": "DT_INT32"}}}, {"name": "Func/StatefulPartitionedCall/input/_66", "op": "Const", "input": ["^Func/StatefulPartitionedCall/input_control_node/_0"], "attr": {"value": {"tensor": {"dtype": "DT_FLOAT", "tensorShape": {"dim": [{"size": "24"}]}}}, "dtype": {"type": "DT_FLOAT"}}}, {"name": "Func/StatefulPartitionedCall/input/_77", "op": "Const", "input": ["^Func/StatefulPartitionedCall/input_control_node/_0"], "attr": {"value": {"tensor": {"dtype": "DT_FLOAT", "tensorShape": {"dim": [{"size": "1"}, {"size": "1"}, {"size": "24"}, {"size": "3"}]}}}, "dtype": {"type": "DT_FLOAT"}}}, {"name": "StatefulPartitionedCall/model_2/model_1/lambda_2/strided_slice/stack_1", "op": "Const", "input": ["^Func/StatefulPartitionedCall/input_control_node/_0"], "attr": {"value": {"tensor": {"dtype": "DT_INT32", "tensorShape": {"dim": [{"size": "1"}]}}}, "dtype": {"type": "DT_INT32"}}}, {"name": "StatefulPartitionedCall/model_2/model_1/lambda_2/strided_slice/stack", "op": "Const", "input": ["^Func/StatefulPartitionedCall/input_control_node/_0"], "attr": {"value": {"tensor": {"dtype": "DT_INT32", "tensorShape": {"dim": [{"size": "1"}]}}}, "dtype": {"type": "DT_INT32"}}}, {"name": "StatefulPartitionedCall/model_2/sequential/dense_1/BiasAdd", "op": "_FusedMatMul", "input": ["input_8", "Func/StatefulPartitionedCall/input/_7", "Func/StatefulPartitionedCall/input/_8"], "device": "/device:CPU:0", "attr": {"epsilon": {"f": 0.0}, "fused_ops": {"list": {"s": ["Qmlhc0FkZA=="]}}, "transpose_a": {"b": false}, "transpose_b": {"b": false}, "T": {"type": "DT_FLOAT"}, "num_args": {"i": "1"}}}, {"name": "StatefulPartitionedCall/model_2/sequential_1/dense_1/BiasAdd", "op": "_FusedMatMul", "input": ["input_9", "Func/StatefulPartitionedCall/input/_7", "Func/StatefulPartitionedCall/input/_8"], "device": "/device:CPU:0", "attr": {"num_args": {"i": "1"}, "epsilon": {"f": 0.0}, "fused_ops": {"list": {"s": ["Qmlhc0FkZA=="]}}, "transpose_a": {"b": false}, "transpose_b": {"b": false}, "T": {"type": "DT_FLOAT"}}}, {"name": "StatefulPartitionedCall/model_2/sequential_2/dense_1/BiasAdd", "op": "_FusedMatMul", "input": ["input_10", "Func/StatefulPartitionedCall/input/_7", "Func/StatefulPartitionedCall/input/_8"], "device": "/device:CPU:0", "attr": {"num_args": {"i": "1"}, "epsilon": {"f": 0.0}, "fused_ops": {"list": {"s": ["Qmlhc0FkZA=="]}}, "transpose_a": {"b": false}, "transpose_b": {"b": false}, "T": {"type": "DT_FLOAT"}}}, {"name": "StatefulPartitionedCall/model_2/sequential_3/dense_1/BiasAdd", "op": "_FusedMatMul", "input": ["input_11", "Func/StatefulPartitionedCall/input/_7", "Func/StatefulPartitionedCall/input/_8"], "device": "/device:CPU:0", "attr": {"num_args": {"i": "1"}, "epsilon": {"f": 0.0}, "fused_ops": {"list": {"s": ["Qmlhc0FkZA=="]}}, "transpose_a": {"b": false}, "transpose_b": {"b": false}, "T": {"type": "DT_FLOAT"}}}, {"name": "StatefulPartitionedCall/model_2/sequential_4/dense_1/BiasAdd", "op": "_FusedMatMul", "input": ["input_12", "Func/StatefulPartitionedCall/input/_7", "Func/StatefulPartitionedCall/input/_8"], "device": "/device:CPU:0", "attr": {"transpose_b": {"b": false}, "T": {"type": "DT_FLOAT"}, "num_args": {"i": "1"}, "epsilon": {"f": 0.0}, "fused_ops": {"list": {"s": ["Qmlhc0FkZA=="]}}, "transpose_a": {"b": false}}}, {"name": "StatefulPartitionedCall/model_2/model_1/lambda_1/strided_slice", "op": "StridedSlice", "input": ["Func/StatefulPartitionedCall/input/_6", "StatefulPartitionedCall/model_2/model_1/lambda_1/strided_slice/stack", "StatefulPartitionedCall/model_2/model_1/lambda_1/strided_slice/stack_1", "StatefulPartitionedCall/model_2/model_1/lambda_1/strided_slice/stack_2"], "attr": {"ellipsis_mask": {"i": "0"}, "begin_mask": {"i": "15"}, "new_axis_mask": {"i": "0"}, "end_mask": {"i": "9"}, "Index": {"type": "DT_INT32"}, "T": {"type": "DT_FLOAT"}, "shrink_axis_mask": {"i": "0"}}}, {"name": "StatefulPartitionedCall/model_2/model_1/lambda_4/strided_slice", "op": "StridedSlice", "input": ["Func/StatefulPartitionedCall/input/_6", "StatefulPartitionedCall/model_2/model_1/lambda_1/strided_slice/stack", "StatefulPartitionedCall/model_2/model_1/lambda_4/strided_slice/stack_1", "StatefulPartitionedCall/model_2/model_1/lambda_1/strided_slice/stack_2"], "attr": {"shrink_axis_mask": {"i": "0"}, "begin_mask": {"i": "15"}, "ellipsis_mask": {"i": "0"}, "new_axis_mask": {"i": "0"}, "end_mask": {"i": "9"}, "T": {"type": "DT_FLOAT"}, "Index": {"type": "DT_INT32"}}}, {"name": "StatefulPartitionedCall/model_2/model_1/lambda_7/strided_slice", "op": "StridedSlice", "input": ["Func/StatefulPartitionedCall/input/_6", "StatefulPartitionedCall/model_2/model_1/lambda_1/strided_slice/stack", "StatefulPartitionedCall/model_2/model_1/lambda_7/strided_slice/stack_1", "StatefulPartitionedCall/model_2/model_1/lambda_1/strided_slice/stack_2"], "attr": {"T": {"type": "DT_FLOAT"}, "Index": {"type": "DT_INT32"}, "shrink_axis_mask": {"i": "0"}, "begin_mask": {"i": "15"}, "ellipsis_mask": {"i": "0"}, "new_axis_mask": {"i": "0"}, "end_mask": {"i": "9"}}}, {"name": "StatefulPartitionedCall/model_2/model_1/lambda_10/strided_slice", "op": "StridedSlice", "input": ["Func/StatefulPartitionedCall/input/_6", "StatefulPartitionedCall/model_2/model_1/lambda_1/strided_slice/stack", "StatefulPartitionedCall/model_2/model_1/lambda_10/strided_slice/stack_1", "StatefulPartitionedCall/model_2/model_1/lambda_1/strided_slice/stack_2"], "attr": {"shrink_axis_mask": {"i": "0"}, "ellipsis_mask": {"i": "0"}, "begin_mask": {"i": "15"}, "new_axis_mask": {"i": "0"}, "end_mask": {"i": "9"}, "Index": {"type": "DT_INT32"}, "T": {"type": "DT_FLOAT"}}}, {"name": "StatefulPartitionedCall/model_2/model_1/lambda_13/strided_slice", "op": "StridedSlice", "input": ["Func/StatefulPartitionedCall/input/_6", "StatefulPartitionedCall/model_2/model_1/lambda_1/strided_slice/stack", "StatefulPartitionedCall/model_2/model_1/lambda_13/strided_slice/stack_1", "StatefulPartitionedCall/model_2/model_1/lambda_1/strided_slice/stack_2"], "attr": {"T": {"type": "DT_FLOAT"}, "Index": {"type": "DT_INT32"}, "shrink_axis_mask": {"i": "0"}, "begin_mask": {"i": "15"}, "ellipsis_mask": {"i": "0"}, "new_axis_mask": {"i": "0"}, "end_mask": {"i": "9"}}}, {"name": "StatefulPartitionedCall/model_2/model_1/dense_8/Tensordot/concat", "op": "NoOp", "input": ["^StatefulPartitionedCall/model_2/model_1/dense_8/Tensordot/concat/axis", "^StatefulPartitionedCall/model_2/model_1/dense_8/Tensordot/free", "^StatefulPartitionedCall/model_2/model_1/lambda_2/strided_slice/stack_1"]}, {"name": "StatefulPartitionedCall/model_2/sequential/leaky_re_lu_10/LeakyRelu", "op": "LeakyRelu", "input": ["StatefulPartitionedCall/model_2/sequential/dense_1/BiasAdd"], "attr": {"alpha": {"f": 0.2}, "T": {"type": "DT_FLOAT"}}}, {"name": "StatefulPartitionedCall/model_2/sequential_1/leaky_re_lu_10/LeakyRelu", "op": "LeakyRelu", "input": ["StatefulPartitionedCall/model_2/sequential_1/dense_1/BiasAdd"], "attr": {"T": {"type": "DT_FLOAT"}, "alpha": {"f": 0.2}}}, {"name": "StatefulPartitionedCall/model_2/sequential_2/leaky_re_lu_10/LeakyRelu", "op": "LeakyRelu", "input": ["StatefulPartitionedCall/model_2/sequential_2/dense_1/BiasAdd"], "attr": {"alpha": {"f": 0.2}, "T": {"type": "DT_FLOAT"}}}, {"name": "StatefulPartitionedCall/model_2/sequential_3/leaky_re_lu_10/LeakyRelu", "op": "LeakyRelu", "input": ["StatefulPartitionedCall/model_2/sequential_3/dense_1/BiasAdd"], "attr": {"alpha": {"f": 0.2}, "T": {"type": "DT_FLOAT"}}}, {"name": "StatefulPartitionedCall/model_2/sequential_4/leaky_re_lu_10/LeakyRelu", "op": "LeakyRelu", "input": ["StatefulPartitionedCall/model_2/sequential_4/dense_1/BiasAdd"], "attr": {"T": {"type": "DT_FLOAT"}, "alpha": {"f": 0.2}}}, {"name": "StatefulPartitionedCall/model_2/model_1/dense_8/Tensordot/Shape", "op": "Shape", "input": ["StatefulPartitionedCall/model_2/model_1/lambda_1/strided_slice"], "attr": {"T": {"type": "DT_FLOAT"}, "out_type": {"type": "DT_INT32"}}}, {"name": "StatefulPartitionedCall/model_2/model_1/dense_13/Tensordot/Shape", "op": "Shape", "input": ["StatefulPartitionedCall/model_2/model_1/lambda_4/strided_slice"], "attr": {"T": {"type": "DT_FLOAT"}, "out_type": {"type": "DT_INT32"}}}, {"name": "StatefulPartitionedCall/model_2/model_1/dense_18/Tensordot/Shape", "op": "Shape", "input": ["StatefulPartitionedCall/model_2/model_1/lambda_7/strided_slice"], "attr": {"T": {"type": "DT_FLOAT"}, "out_type": {"type": "DT_INT32"}}}, {"name": "StatefulPartitionedCall/model_2/model_1/dense_23/Tensordot/Shape", "op": "Shape", "input": ["StatefulPartitionedCall/model_2/model_1/lambda_10/strided_slice"], "attr": {"T": {"type": "DT_FLOAT"}, "out_type": {"type": "DT_INT32"}}}, {"name": "StatefulPartitionedCall/model_2/model_1/dense_28/Tensordot/Shape", "op": "Shape", "input": ["StatefulPartitionedCall/model_2/model_1/lambda_13/strided_slice"], "attr": {"T": {"type": "DT_FLOAT"}, "out_type": {"type": "DT_INT32"}}}, {"name": "StatefulPartitionedCall/model_2/sequential/dense_2/BiasAdd", "op": "_FusedMatMul", "input": ["StatefulPartitionedCall/model_2/sequential/leaky_re_lu_10/LeakyRelu", "Func/StatefulPartitionedCall/input/_9", "Func/StatefulPartitionedCall/input/_10"], "device": "/device:CPU:0", "attr": {"num_args": {"i": "1"}, "epsilon": {"f": 0.0}, "fused_ops": {"list": {"s": ["Qmlhc0FkZA=="]}}, "transpose_a": {"b": false}, "transpose_b": {"b": false}, "T": {"type": "DT_FLOAT"}}}, {"name": "StatefulPartitionedCall/model_2/sequential_1/dense_2/BiasAdd", "op": "_FusedMatMul", "input": ["StatefulPartitionedCall/model_2/sequential_1/leaky_re_lu_10/LeakyRelu", "Func/StatefulPartitionedCall/input/_9", "Func/StatefulPartitionedCall/input/_10"], "device": "/device:CPU:0", "attr": {"T": {"type": "DT_FLOAT"}, "num_args": {"i": "1"}, "epsilon": {"f": 0.0}, "fused_ops": {"list": {"s": ["Qmlhc0FkZA=="]}}, "transpose_a": {"b": false}, "transpose_b": {"b": false}}}, {"name": "StatefulPartitionedCall/model_2/sequential_2/dense_2/BiasAdd", "op": "_FusedMatMul", "input": ["StatefulPartitionedCall/model_2/sequential_2/leaky_re_lu_10/LeakyRelu", "Func/StatefulPartitionedCall/input/_9", "Func/StatefulPartitionedCall/input/_10"], "device": "/device:CPU:0", "attr": {"num_args": {"i": "1"}, "epsilon": {"f": 0.0}, "fused_ops": {"list": {"s": ["Qmlhc0FkZA=="]}}, "transpose_a": {"b": false}, "transpose_b": {"b": false}, "T": {"type": "DT_FLOAT"}}}, {"name": "StatefulPartitionedCall/model_2/sequential_3/dense_2/BiasAdd", "op": "_FusedMatMul", "input": ["StatefulPartitionedCall/model_2/sequential_3/leaky_re_lu_10/LeakyRelu", "Func/StatefulPartitionedCall/input/_9", "Func/StatefulPartitionedCall/input/_10"], "device": "/device:CPU:0", "attr": {"fused_ops": {"list": {"s": ["Qmlhc0FkZA=="]}}, "transpose_a": {"b": false}, "transpose_b": {"b": false}, "T": {"type": "DT_FLOAT"}, "num_args": {"i": "1"}, "epsilon": {"f": 0.0}}}, {"name": "StatefulPartitionedCall/model_2/sequential_4/dense_2/BiasAdd", "op": "_FusedMatMul", "input": ["StatefulPartitionedCall/model_2/sequential_4/leaky_re_lu_10/LeakyRelu", "Func/StatefulPartitionedCall/input/_9", "Func/StatefulPartitionedCall/input/_10"], "device": "/device:CPU:0", "attr": {"T": {"type": "DT_FLOAT"}, "num_args": {"i": "1"}, "epsilon": {"f": 0.0}, "fused_ops": {"list": {"s": ["Qmlhc0FkZA=="]}}, "transpose_a": {"b": false}, "transpose_b": {"b": false}}}, {"name": "StatefulPartitionedCall/model_2/model_1/dense_8/Tensordot/GatherV2", "op": "GatherV2", "input": ["StatefulPartitionedCall/model_2/model_1/dense_8/Tensordot/Shape", "StatefulPartitionedCall/model_2/model_1/dense_8/Tensordot/free", "StatefulPartitionedCall/model_2/model_1/dense_8/Tensordot/concat/axis"], "attr": {"Taxis": {"type": "DT_INT32"}, "batch_dims": {"i": "0"}, "Tindices": {"type": "DT_INT32"}, "Tparams": {"type": "DT_INT32"}}}, {"name": "StatefulPartitionedCall/model_2/model_1/dense_8/Tensordot/GatherV2_1", "op": "GatherV2", "input": ["StatefulPartitionedCall/model_2/model_1/dense_8/Tensordot/Shape", "StatefulPartitionedCall/model_2/model_1/lambda_2/strided_slice/stack_1", "StatefulPartitionedCall/model_2/model_1/dense_8/Tensordot/concat/axis"], "attr": {"Taxis": {"type": "DT_INT32"}, "batch_dims": {"i": "0"}, "Tindices": {"type": "DT_INT32"}, "Tparams": {"type": "DT_INT32"}}}, {"name": "StatefulPartitionedCall/model_2/model_1/dense_13/Tensordot/GatherV2", "op": "GatherV2", "input": ["StatefulPartitionedCall/model_2/model_1/dense_13/Tensordot/Shape", "StatefulPartitionedCall/model_2/model_1/dense_8/Tensordot/free", "StatefulPartitionedCall/model_2/model_1/dense_8/Tensordot/concat/axis"], "attr": {"batch_dims": {"i": "0"}, "Tindices": {"type": "DT_INT32"}, "Tparams": {"type": "DT_INT32"}, "Taxis": {"type": "DT_INT32"}}}, {"name": "StatefulPartitionedCall/model_2/model_1/dense_13/Tensordot/GatherV2_1", "op": "GatherV2", "input": ["StatefulPartitionedCall/model_2/model_1/dense_13/Tensordot/Shape", "StatefulPartitionedCall/model_2/model_1/lambda_2/strided_slice/stack_1", "StatefulPartitionedCall/model_2/model_1/dense_8/Tensordot/concat/axis"], "attr": {"Taxis": {"type": "DT_INT32"}, "batch_dims": {"i": "0"}, "Tindices": {"type": "DT_INT32"}, "Tparams": {"type": "DT_INT32"}}}, {"name": "StatefulPartitionedCall/model_2/model_1/dense_18/Tensordot/GatherV2", "op": "GatherV2", "input": ["StatefulPartitionedCall/model_2/model_1/dense_18/Tensordot/Shape", "StatefulPartitionedCall/model_2/model_1/dense_8/Tensordot/free", "StatefulPartitionedCall/model_2/model_1/dense_8/Tensordot/concat/axis"], "attr": {"batch_dims": {"i": "0"}, "Tindices": {"type": "DT_INT32"}, "Tparams": {"type": "DT_INT32"}, "Taxis": {"type": "DT_INT32"}}}, {"name": "StatefulPartitionedCall/model_2/model_1/dense_18/Tensordot/GatherV2_1", "op": "GatherV2", "input": ["StatefulPartitionedCall/model_2/model_1/dense_18/Tensordot/Shape", "StatefulPartitionedCall/model_2/model_1/lambda_2/strided_slice/stack_1", "StatefulPartitionedCall/model_2/model_1/dense_8/Tensordot/concat/axis"], "attr": {"Tparams": {"type": "DT_INT32"}, "Taxis": {"type": "DT_INT32"}, "batch_dims": {"i": "0"}, "Tindices": {"type": "DT_INT32"}}}, {"name": "StatefulPartitionedCall/model_2/model_1/dense_23/Tensordot/GatherV2", "op": "GatherV2", "input": ["StatefulPartitionedCall/model_2/model_1/dense_23/Tensordot/Shape", "StatefulPartitionedCall/model_2/model_1/dense_8/Tensordot/free", "StatefulPartitionedCall/model_2/model_1/dense_8/Tensordot/concat/axis"], "attr": {"batch_dims": {"i": "0"}, "Tindices": {"type": "DT_INT32"}, "Tparams": {"type": "DT_INT32"}, "Taxis": {"type": "DT_INT32"}}}, {"name": "StatefulPartitionedCall/model_2/model_1/dense_23/Tensordot/GatherV2_1", "op": "GatherV2", "input": ["StatefulPartitionedCall/model_2/model_1/dense_23/Tensordot/Shape", "StatefulPartitionedCall/model_2/model_1/lambda_2/strided_slice/stack_1", "StatefulPartitionedCall/model_2/model_1/dense_8/Tensordot/concat/axis"], "attr": {"batch_dims": {"i": "0"}, "Tindices": {"type": "DT_INT32"}, "Tparams": {"type": "DT_INT32"}, "Taxis": {"type": "DT_INT32"}}}, {"name": "StatefulPartitionedCall/model_2/model_1/dense_28/Tensordot/GatherV2", "op": "GatherV2", "input": ["StatefulPartitionedCall/model_2/model_1/dense_28/Tensordot/Shape", "StatefulPartitionedCall/model_2/model_1/dense_8/Tensordot/free", "StatefulPartitionedCall/model_2/model_1/dense_8/Tensordot/concat/axis"], "attr": {"batch_dims": {"i": "0"}, "Tindices": {"type": "DT_INT32"}, "Tparams": {"type": "DT_INT32"}, "Taxis": {"type": "DT_INT32"}}}, {"name": "StatefulPartitionedCall/model_2/model_1/dense_28/Tensordot/GatherV2_1", "op": "GatherV2", "input": ["StatefulPartitionedCall/model_2/model_1/dense_28/Tensordot/Shape", "StatefulPartitionedCall/model_2/model_1/lambda_2/strided_slice/stack_1", "StatefulPartitionedCall/model_2/model_1/dense_8/Tensordot/concat/axis"], "attr": {"Tparams": {"type": "DT_INT32"}, "Taxis": {"type": "DT_INT32"}, "batch_dims": {"i": "0"}, "Tindices": {"type": "DT_INT32"}}}, {"name": "StatefulPartitionedCall/model_2/sequential/leaky_re_lu_11/LeakyRelu", "op": "LeakyRelu", "input": ["StatefulPartitionedCall/model_2/sequential/dense_2/BiasAdd"], "attr": {"alpha": {"f": 0.2}, "T": {"type": "DT_FLOAT"}}}, {"name": "StatefulPartitionedCall/model_2/sequential_1/leaky_re_lu_11/LeakyRelu", "op": "LeakyRelu", "input": ["StatefulPartitionedCall/model_2/sequential_1/dense_2/BiasAdd"], "attr": {"T": {"type": "DT_FLOAT"}, "alpha": {"f": 0.2}}}, {"name": "StatefulPartitionedCall/model_2/sequential_2/leaky_re_lu_11/LeakyRelu", "op": "LeakyRelu", "input": ["StatefulPartitionedCall/model_2/sequential_2/dense_2/BiasAdd"], "attr": {"T": {"type": "DT_FLOAT"}, "alpha": {"f": 0.2}}}, {"name": "StatefulPartitionedCall/model_2/sequential_3/leaky_re_lu_11/LeakyRelu", "op": "LeakyRelu", "input": ["StatefulPartitionedCall/model_2/sequential_3/dense_2/BiasAdd"], "attr": {"T": {"type": "DT_FLOAT"}, "alpha": {"f": 0.2}}}, {"name": "StatefulPartitionedCall/model_2/sequential_4/leaky_re_lu_11/LeakyRelu", "op": "LeakyRelu", "input": ["StatefulPartitionedCall/model_2/sequential_4/dense_2/BiasAdd"], "attr": {"alpha": {"f": 0.2}, "T": {"type": "DT_FLOAT"}}}, {"name": "StatefulPartitionedCall/model_2/model_1/dense_8/Tensordot/Prod", "op": "Prod", "input": ["StatefulPartitionedCall/model_2/model_1/dense_8/Tensordot/GatherV2", "StatefulPartitionedCall/model_2/model_1/reshape/strided_slice/stack"], "attr": {"Tidx": {"type": "DT_INT32"}, "keep_dims": {"b": false}, "T": {"type": "DT_INT32"}}}, {"name": "StatefulPartitionedCall/model_2/model_1/dense_8/Tensordot/concat_1", "op": "ConcatV2", "input": ["StatefulPartitionedCall/model_2/model_1/dense_8/Tensordot/GatherV2", "StatefulPartitionedCall/model_2/model_1/dense_8/Tensordot/Const_2", "StatefulPartitionedCall/model_2/model_1/dense_8/Tensordot/concat/axis"], "attr": {"T": {"type": "DT_INT32"}, "N": {"i": "2"}, "Tidx": {"type": "DT_INT32"}}}, {"name": "StatefulPartitionedCall/model_2/model_1/dense_8/Tensordot/Prod_1", "op": "Prod", "input": ["StatefulPartitionedCall/model_2/model_1/dense_8/Tensordot/GatherV2_1", "StatefulPartitionedCall/model_2/model_1/reshape/strided_slice/stack"], "attr": {"T": {"type": "DT_INT32"}, "Tidx": {"type": "DT_INT32"}, "keep_dims": {"b": false}}}, {"name": "StatefulPartitionedCall/model_2/model_1/dense_13/Tensordot/Prod", "op": "Prod", "input": ["StatefulPartitionedCall/model_2/model_1/dense_13/Tensordot/GatherV2", "StatefulPartitionedCall/model_2/model_1/reshape/strided_slice/stack"], "attr": {"Tidx": {"type": "DT_INT32"}, "keep_dims": {"b": false}, "T": {"type": "DT_INT32"}}}, {"name": "StatefulPartitionedCall/model_2/model_1/dense_13/Tensordot/concat_1", "op": "ConcatV2", "input": ["StatefulPartitionedCall/model_2/model_1/dense_13/Tensordot/GatherV2", "StatefulPartitionedCall/model_2/model_1/dense_13/Tensordot/Const_2", "StatefulPartitionedCall/model_2/model_1/dense_8/Tensordot/concat/axis"], "attr": {"T": {"type": "DT_INT32"}, "N": {"i": "2"}, "Tidx": {"type": "DT_INT32"}}}, {"name": "StatefulPartitionedCall/model_2/model_1/dense_13/Tensordot/Prod_1", "op": "Prod", "input": ["StatefulPartitionedCall/model_2/model_1/dense_13/Tensordot/GatherV2_1", "StatefulPartitionedCall/model_2/model_1/reshape/strided_slice/stack"], "attr": {"T": {"type": "DT_INT32"}, "Tidx": {"type": "DT_INT32"}, "keep_dims": {"b": false}}}, {"name": "StatefulPartitionedCall/model_2/model_1/dense_18/Tensordot/Prod", "op": "Prod", "input": ["StatefulPartitionedCall/model_2/model_1/dense_18/Tensordot/GatherV2", "StatefulPartitionedCall/model_2/model_1/reshape/strided_slice/stack"], "attr": {"T": {"type": "DT_INT32"}, "Tidx": {"type": "DT_INT32"}, "keep_dims": {"b": false}}}, {"name": "StatefulPartitionedCall/model_2/model_1/dense_18/Tensordot/concat_1", "op": "ConcatV2", "input": ["StatefulPartitionedCall/model_2/model_1/dense_18/Tensordot/GatherV2", "StatefulPartitionedCall/model_2/model_1/dense_18/Tensordot/Const_2", "StatefulPartitionedCall/model_2/model_1/dense_8/Tensordot/concat/axis"], "attr": {"Tidx": {"type": "DT_INT32"}, "T": {"type": "DT_INT32"}, "N": {"i": "2"}}}, {"name": "StatefulPartitionedCall/model_2/model_1/dense_18/Tensordot/Prod_1", "op": "Prod", "input": ["StatefulPartitionedCall/model_2/model_1/dense_18/Tensordot/GatherV2_1", "StatefulPartitionedCall/model_2/model_1/reshape/strided_slice/stack"], "attr": {"Tidx": {"type": "DT_INT32"}, "keep_dims": {"b": false}, "T": {"type": "DT_INT32"}}}, {"name": "StatefulPartitionedCall/model_2/model_1/dense_23/Tensordot/Prod", "op": "Prod", "input": ["StatefulPartitionedCall/model_2/model_1/dense_23/Tensordot/GatherV2", "StatefulPartitionedCall/model_2/model_1/reshape/strided_slice/stack"], "attr": {"Tidx": {"type": "DT_INT32"}, "keep_dims": {"b": false}, "T": {"type": "DT_INT32"}}}, {"name": "StatefulPartitionedCall/model_2/model_1/dense_23/Tensordot/concat_1", "op": "ConcatV2", "input": ["StatefulPartitionedCall/model_2/model_1/dense_23/Tensordot/GatherV2", "StatefulPartitionedCall/model_2/model_1/dense_23/Tensordot/Const_2", "StatefulPartitionedCall/model_2/model_1/dense_8/Tensordot/concat/axis"], "attr": {"N": {"i": "2"}, "Tidx": {"type": "DT_INT32"}, "T": {"type": "DT_INT32"}}}, {"name": "StatefulPartitionedCall/model_2/model_1/dense_23/Tensordot/Prod_1", "op": "Prod", "input": ["StatefulPartitionedCall/model_2/model_1/dense_23/Tensordot/GatherV2_1", "StatefulPartitionedCall/model_2/model_1/reshape/strided_slice/stack"], "attr": {"Tidx": {"type": "DT_INT32"}, "keep_dims": {"b": false}, "T": {"type": "DT_INT32"}}}, {"name": "StatefulPartitionedCall/model_2/model_1/dense_28/Tensordot/Prod", "op": "Prod", "input": ["StatefulPartitionedCall/model_2/model_1/dense_28/Tensordot/GatherV2", "StatefulPartitionedCall/model_2/model_1/reshape/strided_slice/stack"], "attr": {"Tidx": {"type": "DT_INT32"}, "keep_dims": {"b": false}, "T": {"type": "DT_INT32"}}}, {"name": "StatefulPartitionedCall/model_2/model_1/dense_28/Tensordot/concat_1", "op": "ConcatV2", "input": ["StatefulPartitionedCall/model_2/model_1/dense_28/Tensordot/GatherV2", "StatefulPartitionedCall/model_2/model_1/dense_28/Tensordot/Const_2", "StatefulPartitionedCall/model_2/model_1/dense_8/Tensordot/concat/axis"], "attr": {"Tidx": {"type": "DT_INT32"}, "T": {"type": "DT_INT32"}, "N": {"i": "2"}}}, {"name": "StatefulPartitionedCall/model_2/model_1/dense_28/Tensordot/Prod_1", "op": "Prod", "input": ["StatefulPartitionedCall/model_2/model_1/dense_28/Tensordot/GatherV2_1", "StatefulPartitionedCall/model_2/model_1/reshape/strided_slice/stack"], "attr": {"Tidx": {"type": "DT_INT32"}, "keep_dims": {"b": false}, "T": {"type": "DT_INT32"}}}, {"name": "StatefulPartitionedCall/model_2/sequential/dense_3/BiasAdd", "op": "_FusedMatMul", "input": ["StatefulPartitionedCall/model_2/sequential/leaky_re_lu_11/LeakyRelu", "Func/StatefulPartitionedCall/input/_11", "Func/StatefulPartitionedCall/input/_12"], "device": "/device:CPU:0", "attr": {"T": {"type": "DT_FLOAT"}, "num_args": {"i": "1"}, "epsilon": {"f": 0.0}, "fused_ops": {"list": {"s": ["Qmlhc0FkZA=="]}}, "transpose_a": {"b": false}, "transpose_b": {"b": false}}}, {"name": "StatefulPartitionedCall/model_2/sequential_1/dense_3/BiasAdd", "op": "_FusedMatMul", "input": ["StatefulPartitionedCall/model_2/sequential_1/leaky_re_lu_11/LeakyRelu", "Func/StatefulPartitionedCall/input/_11", "Func/StatefulPartitionedCall/input/_12"], "device": "/device:CPU:0", "attr": {"T": {"type": "DT_FLOAT"}, "num_args": {"i": "1"}, "epsilon": {"f": 0.0}, "fused_ops": {"list": {"s": ["Qmlhc0FkZA=="]}}, "transpose_a": {"b": false}, "transpose_b": {"b": false}}}, {"name": "StatefulPartitionedCall/model_2/sequential_2/dense_3/BiasAdd", "op": "_FusedMatMul", "input": ["StatefulPartitionedCall/model_2/sequential_2/leaky_re_lu_11/LeakyRelu", "Func/StatefulPartitionedCall/input/_11", "Func/StatefulPartitionedCall/input/_12"], "device": "/device:CPU:0", "attr": {"T": {"type": "DT_FLOAT"}, "num_args": {"i": "1"}, "epsilon": {"f": 0.0}, "fused_ops": {"list": {"s": ["Qmlhc0FkZA=="]}}, "transpose_a": {"b": false}, "transpose_b": {"b": false}}}, {"name": "StatefulPartitionedCall/model_2/sequential_3/dense_3/BiasAdd", "op": "_FusedMatMul", "input": ["StatefulPartitionedCall/model_2/sequential_3/leaky_re_lu_11/LeakyRelu", "Func/StatefulPartitionedCall/input/_11", "Func/StatefulPartitionedCall/input/_12"], "device": "/device:CPU:0", "attr": {"T": {"type": "DT_FLOAT"}, "num_args": {"i": "1"}, "epsilon": {"f": 0.0}, "fused_ops": {"list": {"s": ["Qmlhc0FkZA=="]}}, "transpose_a": {"b": false}, "transpose_b": {"b": false}}}, {"name": "StatefulPartitionedCall/model_2/sequential_4/dense_3/BiasAdd", "op": "_FusedMatMul", "input": ["StatefulPartitionedCall/model_2/sequential_4/leaky_re_lu_11/LeakyRelu", "Func/StatefulPartitionedCall/input/_11", "Func/StatefulPartitionedCall/input/_12"], "device": "/device:CPU:0", "attr": {"transpose_a": {"b": false}, "transpose_b": {"b": false}, "T": {"type": "DT_FLOAT"}, "num_args": {"i": "1"}, "epsilon": {"f": 0.0}, "fused_ops": {"list": {"s": ["Qmlhc0FkZA=="]}}}}, {"name": "StatefulPartitionedCall/model_2/model_1/dense_8/Tensordot/stack", "op": "Pack", "input": ["StatefulPartitionedCall/model_2/model_1/dense_8/Tensordot/Prod", "StatefulPartitionedCall/model_2/model_1/dense_8/Tensordot/Prod_1"], "attr": {"T": {"type": "DT_INT32"}, "axis": {"i": "0"}, "N": {"i": "2"}}}, {"name": "StatefulPartitionedCall/model_2/model_1/dense_13/Tensordot/stack", "op": "Pack", "input": ["StatefulPartitionedCall/model_2/model_1/dense_13/Tensordot/Prod", "StatefulPartitionedCall/model_2/model_1/dense_13/Tensordot/Prod_1"], "attr": {"T": {"type": "DT_INT32"}, "axis": {"i": "0"}, "N": {"i": "2"}}}, {"name": "StatefulPartitionedCall/model_2/model_1/dense_18/Tensordot/stack", "op": "Pack", "input": ["StatefulPartitionedCall/model_2/model_1/dense_18/Tensordot/Prod", "StatefulPartitionedCall/model_2/model_1/dense_18/Tensordot/Prod_1"], "attr": {"N": {"i": "2"}, "T": {"type": "DT_INT32"}, "axis": {"i": "0"}}}, {"name": "StatefulPartitionedCall/model_2/model_1/dense_23/Tensordot/stack", "op": "Pack", "input": ["StatefulPartitionedCall/model_2/model_1/dense_23/Tensordot/Prod", "StatefulPartitionedCall/model_2/model_1/dense_23/Tensordot/Prod_1"], "attr": {"T": {"type": "DT_INT32"}, "axis": {"i": "0"}, "N": {"i": "2"}}}, {"name": "StatefulPartitionedCall/model_2/model_1/dense_28/Tensordot/stack", "op": "Pack", "input": ["StatefulPartitionedCall/model_2/model_1/dense_28/Tensordot/Prod", "StatefulPartitionedCall/model_2/model_1/dense_28/Tensordot/Prod_1"], "attr": {"T": {"type": "DT_INT32"}, "axis": {"i": "0"}, "N": {"i": "2"}}}, {"name": "StatefulPartitionedCall/model_2/sequential/leaky_re_lu_12/LeakyRelu", "op": "LeakyRelu", "input": ["StatefulPartitionedCall/model_2/sequential/dense_3/BiasAdd"], "attr": {"T": {"type": "DT_FLOAT"}, "alpha": {"f": 0.2}}}, {"name": "StatefulPartitionedCall/model_2/sequential_1/leaky_re_lu_12/LeakyRelu", "op": "LeakyRelu", "input": ["StatefulPartitionedCall/model_2/sequential_1/dense_3/BiasAdd"], "attr": {"T": {"type": "DT_FLOAT"}, "alpha": {"f": 0.2}}}, {"name": "StatefulPartitionedCall/model_2/sequential_2/leaky_re_lu_12/LeakyRelu", "op": "LeakyRelu", "input": ["StatefulPartitionedCall/model_2/sequential_2/dense_3/BiasAdd"], "attr": {"T": {"type": "DT_FLOAT"}, "alpha": {"f": 0.2}}}, {"name": "StatefulPartitionedCall/model_2/sequential_3/leaky_re_lu_12/LeakyRelu", "op": "LeakyRelu", "input": ["StatefulPartitionedCall/model_2/sequential_3/dense_3/BiasAdd"], "attr": {"T": {"type": "DT_FLOAT"}, "alpha": {"f": 0.2}}}, {"name": "StatefulPartitionedCall/model_2/sequential_4/leaky_re_lu_12/LeakyRelu", "op": "LeakyRelu", "input": ["StatefulPartitionedCall/model_2/sequential_4/dense_3/BiasAdd"], "attr": {"T": {"type": "DT_FLOAT"}, "alpha": {"f": 0.2}}}, {"name": "StatefulPartitionedCall/model_2/model_1/dense_8/Tensordot/Reshape", "op": "Reshape", "input": ["StatefulPartitionedCall/model_2/model_1/lambda_1/strided_slice", "StatefulPartitionedCall/model_2/model_1/dense_8/Tensordot/stack", "^StatefulPartitionedCall/model_2/model_1/dense_8/Tensordot/concat"], "attr": {"T": {"type": "DT_FLOAT"}, "Tshape": {"type": "DT_INT32"}}}, {"name": "StatefulPartitionedCall/model_2/model_1/dense_13/Tensordot/Reshape", "op": "Reshape", "input": ["StatefulPartitionedCall/model_2/model_1/lambda_4/strided_slice", "StatefulPartitionedCall/model_2/model_1/dense_13/Tensordot/stack", "^StatefulPartitionedCall/model_2/model_1/dense_8/Tensordot/concat"], "attr": {"T": {"type": "DT_FLOAT"}, "Tshape": {"type": "DT_INT32"}}}, {"name": "StatefulPartitionedCall/model_2/model_1/dense_18/Tensordot/Reshape", "op": "Reshape", "input": ["StatefulPartitionedCall/model_2/model_1/lambda_7/strided_slice", "StatefulPartitionedCall/model_2/model_1/dense_18/Tensordot/stack", "^StatefulPartitionedCall/model_2/model_1/dense_8/Tensordot/concat"], "attr": {"T": {"type": "DT_FLOAT"}, "Tshape": {"type": "DT_INT32"}}}, {"name": "StatefulPartitionedCall/model_2/model_1/dense_23/Tensordot/Reshape", "op": "Reshape", "input": ["StatefulPartitionedCall/model_2/model_1/lambda_10/strided_slice", "StatefulPartitionedCall/model_2/model_1/dense_23/Tensordot/stack", "^StatefulPartitionedCall/model_2/model_1/dense_8/Tensordot/concat"], "attr": {"T": {"type": "DT_FLOAT"}, "Tshape": {"type": "DT_INT32"}}}, {"name": "StatefulPartitionedCall/model_2/model_1/dense_28/Tensordot/Reshape", "op": "Reshape", "input": ["StatefulPartitionedCall/model_2/model_1/lambda_13/strided_slice", "StatefulPartitionedCall/model_2/model_1/dense_28/Tensordot/stack", "^StatefulPartitionedCall/model_2/model_1/dense_8/Tensordot/concat"], "attr": {"T": {"type": "DT_FLOAT"}, "Tshape": {"type": "DT_INT32"}}}, {"name": "StatefulPartitionedCall/model_2/sequential/dense_4/BiasAdd", "op": "_FusedMatMul", "input": ["StatefulPartitionedCall/model_2/sequential/leaky_re_lu_12/LeakyRelu", "Func/StatefulPartitionedCall/input/_13", "Func/StatefulPartitionedCall/input/_14"], "device": "/device:CPU:0", "attr": {"num_args": {"i": "1"}, "epsilon": {"f": 0.0}, "fused_ops": {"list": {"s": ["Qmlhc0FkZA=="]}}, "transpose_a": {"b": false}, "transpose_b": {"b": false}, "T": {"type": "DT_FLOAT"}}}, {"name": "StatefulPartitionedCall/model_2/sequential_1/dense_4/BiasAdd", "op": "_FusedMatMul", "input": ["StatefulPartitionedCall/model_2/sequential_1/leaky_re_lu_12/LeakyRelu", "Func/StatefulPartitionedCall/input/_13", "Func/StatefulPartitionedCall/input/_14"], "device": "/device:CPU:0", "attr": {"num_args": {"i": "1"}, "epsilon": {"f": 0.0}, "fused_ops": {"list": {"s": ["Qmlhc0FkZA=="]}}, "transpose_a": {"b": false}, "transpose_b": {"b": false}, "T": {"type": "DT_FLOAT"}}}, {"name": "StatefulPartitionedCall/model_2/sequential_2/dense_4/BiasAdd", "op": "_FusedMatMul", "input": ["StatefulPartitionedCall/model_2/sequential_2/leaky_re_lu_12/LeakyRelu", "Func/StatefulPartitionedCall/input/_13", "Func/StatefulPartitionedCall/input/_14"], "device": "/device:CPU:0", "attr": {"fused_ops": {"list": {"s": ["Qmlhc0FkZA=="]}}, "transpose_a": {"b": false}, "transpose_b": {"b": false}, "T": {"type": "DT_FLOAT"}, "num_args": {"i": "1"}, "epsilon": {"f": 0.0}}}, {"name": "StatefulPartitionedCall/model_2/sequential_3/dense_4/BiasAdd", "op": "_FusedMatMul", "input": ["StatefulPartitionedCall/model_2/sequential_3/leaky_re_lu_12/LeakyRelu", "Func/StatefulPartitionedCall/input/_13", "Func/StatefulPartitionedCall/input/_14"], "device": "/device:CPU:0", "attr": {"fused_ops": {"list": {"s": ["Qmlhc0FkZA=="]}}, "transpose_a": {"b": false}, "transpose_b": {"b": false}, "T": {"type": "DT_FLOAT"}, "num_args": {"i": "1"}, "epsilon": {"f": 0.0}}}, {"name": "StatefulPartitionedCall/model_2/sequential_4/dense_4/BiasAdd", "op": "_FusedMatMul", "input": ["StatefulPartitionedCall/model_2/sequential_4/leaky_re_lu_12/LeakyRelu", "Func/StatefulPartitionedCall/input/_13", "Func/StatefulPartitionedCall/input/_14"], "device": "/device:CPU:0", "attr": {"T": {"type": "DT_FLOAT"}, "num_args": {"i": "1"}, "epsilon": {"f": 0.0}, "fused_ops": {"list": {"s": ["Qmlhc0FkZA=="]}}, "transpose_a": {"b": false}, "transpose_b": {"b": false}}}, {"name": "StatefulPartitionedCall/model_2/model_1/dense_8/Tensordot/MatMul", "op": "MatMul", "input": ["StatefulPartitionedCall/model_2/model_1/dense_8/Tensordot/Reshape", "Func/StatefulPartitionedCall/input/_20"], "device": "/device:CPU:0", "attr": {"transpose_b": {"b": false}, "T": {"type": "DT_FLOAT"}, "transpose_a": {"b": false}}}, {"name": "StatefulPartitionedCall/model_2/model_1/dense_10/Tensordot/MatMul", "op": "MatMul", "input": ["StatefulPartitionedCall/model_2/model_1/dense_8/Tensordot/Reshape", "Func/StatefulPartitionedCall/input/_25"], "device": "/device:CPU:0", "attr": {"transpose_a": {"b": false}, "transpose_b": {"b": false}, "T": {"type": "DT_FLOAT"}}}, {"name": "StatefulPartitionedCall/model_2/model_1/dense_13/Tensordot/MatMul", "op": "MatMul", "input": ["StatefulPartitionedCall/model_2/model_1/dense_13/Tensordot/Reshape", "Func/StatefulPartitionedCall/input/_30"], "device": "/device:CPU:0", "attr": {"T": {"type": "DT_FLOAT"}, "transpose_a": {"b": false}, "transpose_b": {"b": false}}}, {"name": "StatefulPartitionedCall/model_2/model_1/dense_15/Tensordot/MatMul", "op": "MatMul", "input": ["StatefulPartitionedCall/model_2/model_1/dense_13/Tensordot/Reshape", "Func/StatefulPartitionedCall/input/_35"], "device": "/device:CPU:0", "attr": {"T": {"type": "DT_FLOAT"}, "transpose_a": {"b": false}, "transpose_b": {"b": false}}}, {"name": "StatefulPartitionedCall/model_2/model_1/dense_18/Tensordot/MatMul", "op": "MatMul", "input": ["StatefulPartitionedCall/model_2/model_1/dense_18/Tensordot/Reshape", "Func/StatefulPartitionedCall/input/_40"], "device": "/device:CPU:0", "attr": {"T": {"type": "DT_FLOAT"}, "transpose_a": {"b": false}, "transpose_b": {"b": false}}}, {"name": "StatefulPartitionedCall/model_2/model_1/dense_20/Tensordot/MatMul", "op": "MatMul", "input": ["StatefulPartitionedCall/model_2/model_1/dense_18/Tensordot/Reshape", "Func/StatefulPartitionedCall/input/_45"], "device": "/device:CPU:0", "attr": {"T": {"type": "DT_FLOAT"}, "transpose_a": {"b": false}, "transpose_b": {"b": false}}}, {"name": "StatefulPartitionedCall/model_2/model_1/dense_23/Tensordot/MatMul", "op": "MatMul", "input": ["StatefulPartitionedCall/model_2/model_1/dense_23/Tensordot/Reshape", "Func/StatefulPartitionedCall/input/_50"], "device": "/device:CPU:0", "attr": {"transpose_b": {"b": false}, "T": {"type": "DT_FLOAT"}, "transpose_a": {"b": false}}}, {"name": "StatefulPartitionedCall/model_2/model_1/dense_25/Tensordot/MatMul", "op": "MatMul", "input": ["StatefulPartitionedCall/model_2/model_1/dense_23/Tensordot/Reshape", "Func/StatefulPartitionedCall/input/_55"], "device": "/device:CPU:0", "attr": {"T": {"type": "DT_FLOAT"}, "transpose_a": {"b": false}, "transpose_b": {"b": false}}}, {"name": "StatefulPartitionedCall/model_2/model_1/dense_28/Tensordot/MatMul", "op": "MatMul", "input": ["StatefulPartitionedCall/model_2/model_1/dense_28/Tensordot/Reshape", "Func/StatefulPartitionedCall/input/_60"], "device": "/device:CPU:0", "attr": {"transpose_a": {"b": false}, "transpose_b": {"b": false}, "T": {"type": "DT_FLOAT"}}}, {"name": "StatefulPartitionedCall/model_2/model_1/dense_30/Tensordot/MatMul", "op": "MatMul", "input": ["StatefulPartitionedCall/model_2/model_1/dense_28/Tensordot/Reshape", "Func/StatefulPartitionedCall/input/_65"], "device": "/device:CPU:0", "attr": {"T": {"type": "DT_FLOAT"}, "transpose_a": {"b": false}, "transpose_b": {"b": false}}}, {"name": "StatefulPartitionedCall/model_2/sequential/leaky_re_lu_13/LeakyRelu", "op": "LeakyRelu", "input": ["StatefulPartitionedCall/model_2/sequential/dense_4/BiasAdd"], "attr": {"T": {"type": "DT_FLOAT"}, "alpha": {"f": 0.2}}}, {"name": "StatefulPartitionedCall/model_2/sequential_1/leaky_re_lu_13/LeakyRelu", "op": "LeakyRelu", "input": ["StatefulPartitionedCall/model_2/sequential_1/dense_4/BiasAdd"], "attr": {"T": {"type": "DT_FLOAT"}, "alpha": {"f": 0.2}}}, {"name": "StatefulPartitionedCall/model_2/sequential_2/leaky_re_lu_13/LeakyRelu", "op": "LeakyRelu", "input": ["StatefulPartitionedCall/model_2/sequential_2/dense_4/BiasAdd"], "attr": {"T": {"type": "DT_FLOAT"}, "alpha": {"f": 0.2}}}, {"name": "StatefulPartitionedCall/model_2/sequential_3/leaky_re_lu_13/LeakyRelu", "op": "LeakyRelu", "input": ["StatefulPartitionedCall/model_2/sequential_3/dense_4/BiasAdd"], "attr": {"alpha": {"f": 0.2}, "T": {"type": "DT_FLOAT"}}}, {"name": "StatefulPartitionedCall/model_2/sequential_4/leaky_re_lu_13/LeakyRelu", "op": "LeakyRelu", "input": ["StatefulPartitionedCall/model_2/sequential_4/dense_4/BiasAdd"], "attr": {"T": {"type": "DT_FLOAT"}, "alpha": {"f": 0.2}}}, {"name": "StatefulPartitionedCall/model_2/model_1/dense_8/Tensordot", "op": "Reshape", "input": ["StatefulPartitionedCall/model_2/model_1/dense_8/Tensordot/MatMul", "StatefulPartitionedCall/model_2/model_1/dense_8/Tensordot/concat_1"], "attr": {"T": {"type": "DT_FLOAT"}, "Tshape": {"type": "DT_INT32"}}}, {"name": "StatefulPartitionedCall/model_2/model_1/dense_10/Tensordot", "op": "Reshape", "input": ["StatefulPartitionedCall/model_2/model_1/dense_10/Tensordot/MatMul", "StatefulPartitionedCall/model_2/model_1/dense_8/Tensordot/concat_1"], "attr": {"T": {"type": "DT_FLOAT"}, "Tshape": {"type": "DT_INT32"}}}, {"name": "StatefulPartitionedCall/model_2/model_1/dense_13/Tensordot", "op": "Reshape", "input": ["StatefulPartitionedCall/model_2/model_1/dense_13/Tensordot/MatMul", "StatefulPartitionedCall/model_2/model_1/dense_13/Tensordot/concat_1"], "attr": {"T": {"type": "DT_FLOAT"}, "Tshape": {"type": "DT_INT32"}}}, {"name": "StatefulPartitionedCall/model_2/model_1/dense_15/Tensordot", "op": "Reshape", "input": ["StatefulPartitionedCall/model_2/model_1/dense_15/Tensordot/MatMul", "StatefulPartitionedCall/model_2/model_1/dense_13/Tensordot/concat_1"], "attr": {"T": {"type": "DT_FLOAT"}, "Tshape": {"type": "DT_INT32"}}}, {"name": "StatefulPartitionedCall/model_2/model_1/dense_18/Tensordot", "op": "Reshape", "input": ["StatefulPartitionedCall/model_2/model_1/dense_18/Tensordot/MatMul", "StatefulPartitionedCall/model_2/model_1/dense_18/Tensordot/concat_1"], "attr": {"T": {"type": "DT_FLOAT"}, "Tshape": {"type": "DT_INT32"}}}, {"name": "StatefulPartitionedCall/model_2/model_1/dense_20/Tensordot", "op": "Reshape", "input": ["StatefulPartitionedCall/model_2/model_1/dense_20/Tensordot/MatMul", "StatefulPartitionedCall/model_2/model_1/dense_18/Tensordot/concat_1"], "attr": {"T": {"type": "DT_FLOAT"}, "Tshape": {"type": "DT_INT32"}}}, {"name": "StatefulPartitionedCall/model_2/model_1/dense_23/Tensordot", "op": "Reshape", "input": ["StatefulPartitionedCall/model_2/model_1/dense_23/Tensordot/MatMul", "StatefulPartitionedCall/model_2/model_1/dense_23/Tensordot/concat_1"], "attr": {"T": {"type": "DT_FLOAT"}, "Tshape": {"type": "DT_INT32"}}}, {"name": "StatefulPartitionedCall/model_2/model_1/dense_25/Tensordot", "op": "Reshape", "input": ["StatefulPartitionedCall/model_2/model_1/dense_25/Tensordot/MatMul", "StatefulPartitionedCall/model_2/model_1/dense_23/Tensordot/concat_1"], "attr": {"T": {"type": "DT_FLOAT"}, "Tshape": {"type": "DT_INT32"}}}, {"name": "StatefulPartitionedCall/model_2/model_1/dense_28/Tensordot", "op": "Reshape", "input": ["StatefulPartitionedCall/model_2/model_1/dense_28/Tensordot/MatMul", "StatefulPartitionedCall/model_2/model_1/dense_28/Tensordot/concat_1"], "attr": {"T": {"type": "DT_FLOAT"}, "Tshape": {"type": "DT_INT32"}}}, {"name": "StatefulPartitionedCall/model_2/model_1/dense_30/Tensordot", "op": "Reshape", "input": ["StatefulPartitionedCall/model_2/model_1/dense_30/Tensordot/MatMul", "StatefulPartitionedCall/model_2/model_1/dense_28/Tensordot/concat_1"], "attr": {"T": {"type": "DT_FLOAT"}, "Tshape": {"type": "DT_INT32"}}}, {"name": "StatefulPartitionedCall/model_2/model_1/dense_6/BiasAdd", "op": "_FusedMatMul", "input": ["StatefulPartitionedCall/model_2/sequential/leaky_re_lu_13/LeakyRelu", "Func/StatefulPartitionedCall/input/_75", "Func/StatefulPartitionedCall/input/_76"], "device": "/device:CPU:0", "attr": {"T": {"type": "DT_FLOAT"}, "num_args": {"i": "1"}, "epsilon": {"f": 0.0}, "fused_ops": {"list": {"s": ["Qmlhc0FkZA=="]}}, "transpose_a": {"b": false}, "transpose_b": {"b": false}}}, {"name": "StatefulPartitionedCall/model_2/model_1/lambda/strided_slice", "op": "StridedSlice", "input": ["StatefulPartitionedCall/model_2/sequential/leaky_re_lu_13/LeakyRelu", "StatefulPartitionedCall/model_2/model_1/lambda/strided_slice/stack", "StatefulPartitionedCall/model_2/model_1/lambda/strided_slice/stack_1", "StatefulPartitionedCall/model_2/model_1/lambda/strided_slice/stack_2"], "attr": {"T": {"type": "DT_FLOAT"}, "Index": {"type": "DT_INT32"}, "shrink_axis_mask": {"i": "0"}, "ellipsis_mask": {"i": "0"}, "begin_mask": {"i": "3"}, "new_axis_mask": {"i": "0"}, "end_mask": {"i": "1"}}}, {"name": "StatefulPartitionedCall/model_2/model_1/dense_7/BiasAdd", "op": "_FusedMatMul", "input": ["StatefulPartitionedCall/model_2/sequential/leaky_re_lu_13/LeakyRelu", "Func/StatefulPartitionedCall/input/_17", "Func/StatefulPartitionedCall/input/_18"], "device": "/device:CPU:0", "attr": {"T": {"type": "DT_FLOAT"}, "num_args": {"i": "1"}, "epsilon": {"f": 0.0}, "fused_ops": {"list": {"s": ["Qmlhc0FkZA=="]}}, "transpose_a": {"b": false}, "transpose_b": {"b": false}}}, {"name": "StatefulPartitionedCall/model_2/model_1/dense_9/BiasAdd", "op": "_FusedMatMul", "input": ["StatefulPartitionedCall/model_2/sequential/leaky_re_lu_13/LeakyRelu", "Func/StatefulPartitionedCall/input/_22", "Func/StatefulPartitionedCall/input/_23"], "device": "/device:CPU:0", "attr": {"transpose_b": {"b": false}, "T": {"type": "DT_FLOAT"}, "num_args": {"i": "1"}, "epsilon": {"f": 0.0}, "fused_ops": {"list": {"s": ["Qmlhc0FkZA=="]}}, "transpose_a": {"b": false}}}, {"name": "StatefulPartitionedCall/model_2/model_1/dense_11/BiasAdd", "op": "_FusedMatMul", "input": ["StatefulPartitionedCall/model_2/sequential_1/leaky_re_lu_13/LeakyRelu", "Func/StatefulPartitionedCall/input/_73", "Func/StatefulPartitionedCall/input/_74"], "device": "/device:CPU:0", "attr": {"num_args": {"i": "1"}, "epsilon": {"f": 0.0}, "fused_ops": {"list": {"s": ["Qmlhc0FkZA=="]}}, "transpose_a": {"b": false}, "transpose_b": {"b": false}, "T": {"type": "DT_FLOAT"}}}, {"name": "StatefulPartitionedCall/model_2/model_1/dense_12/BiasAdd", "op": "_FusedMatMul", "input": ["StatefulPartitionedCall/model_2/sequential_1/leaky_re_lu_13/LeakyRelu", "Func/StatefulPartitionedCall/input/_27", "Func/StatefulPartitionedCall/input/_28"], "device": "/device:CPU:0", "attr": {"T": {"type": "DT_FLOAT"}, "num_args": {"i": "1"}, "epsilon": {"f": 0.0}, "fused_ops": {"list": {"s": ["Qmlhc0FkZA=="]}}, "transpose_a": {"b": false}, "transpose_b": {"b": false}}}, {"name": "StatefulPartitionedCall/model_2/model_1/dense_14/BiasAdd", "op": "_FusedMatMul", "input": ["StatefulPartitionedCall/model_2/sequential_1/leaky_re_lu_13/LeakyRelu", "Func/StatefulPartitionedCall/input/_32", "Func/StatefulPartitionedCall/input/_33"], "device": "/device:CPU:0", "attr": {"transpose_b": {"b": false}, "T": {"type": "DT_FLOAT"}, "num_args": {"i": "1"}, "epsilon": {"f": 0.0}, "fused_ops": {"list": {"s": ["Qmlhc0FkZA=="]}}, "transpose_a": {"b": false}}}, {"name": "StatefulPartitionedCall/model_2/model_1/dense_16/BiasAdd", "op": "_FusedMatMul", "input": ["StatefulPartitionedCall/model_2/sequential_2/leaky_re_lu_13/LeakyRelu", "Func/StatefulPartitionedCall/input/_71", "Func/StatefulPartitionedCall/input/_72"], "device": "/device:CPU:0", "attr": {"fused_ops": {"list": {"s": ["Qmlhc0FkZA=="]}}, "transpose_a": {"b": false}, "transpose_b": {"b": false}, "T": {"type": "DT_FLOAT"}, "num_args": {"i": "1"}, "epsilon": {"f": 0.0}}}, {"name": "StatefulPartitionedCall/model_2/model_1/dense_17/BiasAdd", "op": "_FusedMatMul", "input": ["StatefulPartitionedCall/model_2/sequential_2/leaky_re_lu_13/LeakyRelu", "Func/StatefulPartitionedCall/input/_37", "Func/StatefulPartitionedCall/input/_38"], "device": "/device:CPU:0", "attr": {"num_args": {"i": "1"}, "epsilon": {"f": 0.0}, "fused_ops": {"list": {"s": ["Qmlhc0FkZA=="]}}, "transpose_a": {"b": false}, "transpose_b": {"b": false}, "T": {"type": "DT_FLOAT"}}}, {"name": "StatefulPartitionedCall/model_2/model_1/dense_19/BiasAdd", "op": "_FusedMatMul", "input": ["StatefulPartitionedCall/model_2/sequential_2/leaky_re_lu_13/LeakyRelu", "Func/StatefulPartitionedCall/input/_42", "Func/StatefulPartitionedCall/input/_43"], "device": "/device:CPU:0", "attr": {"transpose_b": {"b": false}, "T": {"type": "DT_FLOAT"}, "num_args": {"i": "1"}, "epsilon": {"f": 0.0}, "fused_ops": {"list": {"s": ["Qmlhc0FkZA=="]}}, "transpose_a": {"b": false}}}, {"name": "StatefulPartitionedCall/model_2/model_1/dense_21/BiasAdd", "op": "_FusedMatMul", "input": ["StatefulPartitionedCall/model_2/sequential_3/leaky_re_lu_13/LeakyRelu", "Func/StatefulPartitionedCall/input/_69", "Func/StatefulPartitionedCall/input/_70"], "device": "/device:CPU:0", "attr": {"num_args": {"i": "1"}, "epsilon": {"f": 0.0}, "fused_ops": {"list": {"s": ["Qmlhc0FkZA=="]}}, "transpose_a": {"b": false}, "transpose_b": {"b": false}, "T": {"type": "DT_FLOAT"}}}, {"name": "StatefulPartitionedCall/model_2/model_1/dense_22/BiasAdd", "op": "_FusedMatMul", "input": ["StatefulPartitionedCall/model_2/sequential_3/leaky_re_lu_13/LeakyRelu", "Func/StatefulPartitionedCall/input/_47", "Func/StatefulPartitionedCall/input/_48"], "device": "/device:CPU:0", "attr": {"transpose_b": {"b": false}, "T": {"type": "DT_FLOAT"}, "num_args": {"i": "1"}, "epsilon": {"f": 0.0}, "fused_ops": {"list": {"s": ["Qmlhc0FkZA=="]}}, "transpose_a": {"b": false}}}, {"name": "StatefulPartitionedCall/model_2/model_1/dense_24/BiasAdd", "op": "_FusedMatMul", "input": ["StatefulPartitionedCall/model_2/sequential_3/leaky_re_lu_13/LeakyRelu", "Func/StatefulPartitionedCall/input/_52", "Func/StatefulPartitionedCall/input/_53"], "device": "/device:CPU:0", "attr": {"epsilon": {"f": 0.0}, "fused_ops": {"list": {"s": ["Qmlhc0FkZA=="]}}, "transpose_a": {"b": false}, "transpose_b": {"b": false}, "T": {"type": "DT_FLOAT"}, "num_args": {"i": "1"}}}, {"name": "StatefulPartitionedCall/model_2/model_1/dense_26/BiasAdd", "op": "_FusedMatMul", "input": ["StatefulPartitionedCall/model_2/sequential_4/leaky_re_lu_13/LeakyRelu", "Func/StatefulPartitionedCall/input/_67", "Func/StatefulPartitionedCall/input/_68"], "device": "/device:CPU:0", "attr": {"transpose_b": {"b": false}, "T": {"type": "DT_FLOAT"}, "num_args": {"i": "1"}, "epsilon": {"f": 0.0}, "fused_ops": {"list": {"s": ["Qmlhc0FkZA=="]}}, "transpose_a": {"b": false}}}, {"name": "StatefulPartitionedCall/model_2/model_1/dense_27/BiasAdd", "op": "_FusedMatMul", "input": ["StatefulPartitionedCall/model_2/sequential_4/leaky_re_lu_13/LeakyRelu", "Func/StatefulPartitionedCall/input/_57", "Func/StatefulPartitionedCall/input/_58"], "device": "/device:CPU:0", "attr": {"transpose_b": {"b": false}, "T": {"type": "DT_FLOAT"}, "num_args": {"i": "1"}, "epsilon": {"f": 0.0}, "fused_ops": {"list": {"s": ["Qmlhc0FkZA=="]}}, "transpose_a": {"b": false}}}, {"name": "StatefulPartitionedCall/model_2/model_1/dense_29/BiasAdd", "op": "_FusedMatMul", "input": ["StatefulPartitionedCall/model_2/sequential_4/leaky_re_lu_13/LeakyRelu", "Func/StatefulPartitionedCall/input/_62", "Func/StatefulPartitionedCall/input/_63"], "device": "/device:CPU:0", "attr": {"T": {"type": "DT_FLOAT"}, "num_args": {"i": "1"}, "epsilon": {"f": 0.0}, "fused_ops": {"list": {"s": ["Qmlhc0FkZA=="]}}, "transpose_a": {"b": false}, "transpose_b": {"b": false}}}, {"name": "StatefulPartitionedCall/model_2/model_1/dense_8/BiasAdd", "op": "BiasAdd", "input": ["StatefulPartitionedCall/model_2/model_1/dense_8/Tensordot", "Func/StatefulPartitionedCall/input/_21"], "attr": {"T": {"type": "DT_FLOAT"}, "data_format": {"s": "TkhXQw=="}}}, {"name": "StatefulPartitionedCall/model_2/model_1/dense_10/BiasAdd", "op": "BiasAdd", "input": ["StatefulPartitionedCall/model_2/model_1/dense_10/Tensordot", "Func/StatefulPartitionedCall/input/_26"], "attr": {"T": {"type": "DT_FLOAT"}, "data_format": {"s": "TkhXQw=="}}}, {"name": "StatefulPartitionedCall/model_2/model_1/dense_13/BiasAdd", "op": "BiasAdd", "input": ["StatefulPartitionedCall/model_2/model_1/dense_13/Tensordot", "Func/StatefulPartitionedCall/input/_31"], "attr": {"T": {"type": "DT_FLOAT"}, "data_format": {"s": "TkhXQw=="}}}, {"name": "StatefulPartitionedCall/model_2/model_1/dense_15/BiasAdd", "op": "BiasAdd", "input": ["StatefulPartitionedCall/model_2/model_1/dense_15/Tensordot", "Func/StatefulPartitionedCall/input/_36"], "attr": {"data_format": {"s": "TkhXQw=="}, "T": {"type": "DT_FLOAT"}}}, {"name": "StatefulPartitionedCall/model_2/model_1/dense_18/BiasAdd", "op": "BiasAdd", "input": ["StatefulPartitionedCall/model_2/model_1/dense_18/Tensordot", "Func/StatefulPartitionedCall/input/_41"], "attr": {"T": {"type": "DT_FLOAT"}, "data_format": {"s": "TkhXQw=="}}}, {"name": "StatefulPartitionedCall/model_2/model_1/dense_20/BiasAdd", "op": "BiasAdd", "input": ["StatefulPartitionedCall/model_2/model_1/dense_20/Tensordot", "Func/StatefulPartitionedCall/input/_46"], "attr": {"T": {"type": "DT_FLOAT"}, "data_format": {"s": "TkhXQw=="}}}, {"name": "StatefulPartitionedCall/model_2/model_1/dense_23/BiasAdd", "op": "BiasAdd", "input": ["StatefulPartitionedCall/model_2/model_1/dense_23/Tensordot", "Func/StatefulPartitionedCall/input/_51"], "attr": {"T": {"type": "DT_FLOAT"}, "data_format": {"s": "TkhXQw=="}}}, {"name": "StatefulPartitionedCall/model_2/model_1/dense_25/BiasAdd", "op": "BiasAdd", "input": ["StatefulPartitionedCall/model_2/model_1/dense_25/Tensordot", "Func/StatefulPartitionedCall/input/_56"], "attr": {"data_format": {"s": "TkhXQw=="}, "T": {"type": "DT_FLOAT"}}}, {"name": "StatefulPartitionedCall/model_2/model_1/dense_28/BiasAdd", "op": "BiasAdd", "input": ["StatefulPartitionedCall/model_2/model_1/dense_28/Tensordot", "Func/StatefulPartitionedCall/input/_61"], "attr": {"T": {"type": "DT_FLOAT"}, "data_format": {"s": "TkhXQw=="}}}, {"name": "StatefulPartitionedCall/model_2/model_1/dense_30/BiasAdd", "op": "BiasAdd", "input": ["StatefulPartitionedCall/model_2/model_1/dense_30/Tensordot", "Func/StatefulPartitionedCall/input/_66"], "attr": {"T": {"type": "DT_FLOAT"}, "data_format": {"s": "TkhXQw=="}}}, {"name": "StatefulPartitionedCall/model_2/model_1/conv2d_mod_non_fused_2/add", "op": "AddV2", "input": ["StatefulPartitionedCall/model_2/model_1/conv2d_mod_non_fused_2/add/y", "StatefulPartitionedCall/model_2/model_1/dense_6/BiasAdd"], "attr": {"T": {"type": "DT_FLOAT"}}}, {"name": "StatefulPartitionedCall/model_2/model_1/lambda/mul", "op": "Mul", "input": ["StatefulPartitionedCall/model_2/model_1/lambda/mul/y", "StatefulPartitionedCall/model_2/model_1/lambda/strided_slice"], "attr": {"T": {"type": "DT_FLOAT"}}}, {"name": "StatefulPartitionedCall/model_2/model_1/conv2d_mod_non_fused/add", "op": "AddV2", "input": ["StatefulPartitionedCall/model_2/model_1/conv2d_mod_non_fused_2/add/y", "StatefulPartitionedCall/model_2/model_1/dense_7/BiasAdd"], "attr": {"T": {"type": "DT_FLOAT"}}}, {"name": "StatefulPartitionedCall/model_2/model_1/conv2d_mod_non_fused_1/add", "op": "AddV2", "input": ["StatefulPartitionedCall/model_2/model_1/conv2d_mod_non_fused_2/add/y", "StatefulPartitionedCall/model_2/model_1/dense_9/BiasAdd"], "attr": {"T": {"type": "DT_FLOAT"}}}, {"name": "StatefulPartitionedCall/model_2/model_1/conv2d_mod_non_fused_5/add", "op": "AddV2", "input": ["StatefulPartitionedCall/model_2/model_1/conv2d_mod_non_fused_2/add/y", "StatefulPartitionedCall/model_2/model_1/dense_11/BiasAdd"], "attr": {"T": {"type": "DT_FLOAT"}}}, {"name": "StatefulPartitionedCall/model_2/model_1/conv2d_mod_non_fused_3/add", "op": "AddV2", "input": ["StatefulPartitionedCall/model_2/model_1/conv2d_mod_non_fused_2/add/y", "StatefulPartitionedCall/model_2/model_1/dense_12/BiasAdd"], "attr": {"T": {"type": "DT_FLOAT"}}}, {"name": "StatefulPartitionedCall/model_2/model_1/conv2d_mod_non_fused_4/add", "op": "AddV2", "input": ["StatefulPartitionedCall/model_2/model_1/conv2d_mod_non_fused_2/add/y", "StatefulPartitionedCall/model_2/model_1/dense_14/BiasAdd"], "attr": {"T": {"type": "DT_FLOAT"}}}, {"name": "StatefulPartitionedCall/model_2/model_1/conv2d_mod_non_fused_8/add", "op": "AddV2", "input": ["StatefulPartitionedCall/model_2/model_1/conv2d_mod_non_fused_2/add/y", "StatefulPartitionedCall/model_2/model_1/dense_16/BiasAdd"], "attr": {"T": {"type": "DT_FLOAT"}}}, {"name": "StatefulPartitionedCall/model_2/model_1/conv2d_mod_non_fused_6/add", "op": "AddV2", "input": ["StatefulPartitionedCall/model_2/model_1/conv2d_mod_non_fused_2/add/y", "StatefulPartitionedCall/model_2/model_1/dense_17/BiasAdd"], "attr": {"T": {"type": "DT_FLOAT"}}}, {"name": "StatefulPartitionedCall/model_2/model_1/conv2d_mod_non_fused_7/add", "op": "AddV2", "input": ["StatefulPartitionedCall/model_2/model_1/conv2d_mod_non_fused_2/add/y", "StatefulPartitionedCall/model_2/model_1/dense_19/BiasAdd"], "attr": {"T": {"type": "DT_FLOAT"}}}, {"name": "StatefulPartitionedCall/model_2/model_1/conv2d_mod_non_fused_11/add", "op": "AddV2", "input": ["StatefulPartitionedCall/model_2/model_1/conv2d_mod_non_fused_2/add/y", "StatefulPartitionedCall/model_2/model_1/dense_21/BiasAdd"], "attr": {"T": {"type": "DT_FLOAT"}}}, {"name": "StatefulPartitionedCall/model_2/model_1/conv2d_mod_non_fused_9/add", "op": "AddV2", "input": ["StatefulPartitionedCall/model_2/model_1/conv2d_mod_non_fused_2/add/y", "StatefulPartitionedCall/model_2/model_1/dense_22/BiasAdd"], "attr": {"T": {"type": "DT_FLOAT"}}}, {"name": "StatefulPartitionedCall/model_2/model_1/conv2d_mod_non_fused_10/add", "op": "AddV2", "input": ["StatefulPartitionedCall/model_2/model_1/conv2d_mod_non_fused_2/add/y", "StatefulPartitionedCall/model_2/model_1/dense_24/BiasAdd"], "attr": {"T": {"type": "DT_FLOAT"}}}, {"name": "StatefulPartitionedCall/model_2/model_1/conv2d_mod_non_fused_14/add", "op": "AddV2", "input": ["StatefulPartitionedCall/model_2/model_1/conv2d_mod_non_fused_2/add/y", "StatefulPartitionedCall/model_2/model_1/dense_26/BiasAdd"], "attr": {"T": {"type": "DT_FLOAT"}}}, {"name": "StatefulPartitionedCall/model_2/model_1/conv2d_mod_non_fused_12/add", "op": "AddV2", "input": ["StatefulPartitionedCall/model_2/model_1/conv2d_mod_non_fused_2/add/y", "StatefulPartitionedCall/model_2/model_1/dense_27/BiasAdd"], "attr": {"T": {"type": "DT_FLOAT"}}}, {"name": "StatefulPartitionedCall/model_2/model_1/conv2d_mod_non_fused_13/add", "op": "AddV2", "input": ["StatefulPartitionedCall/model_2/model_1/conv2d_mod_non_fused_2/add/y", "StatefulPartitionedCall/model_2/model_1/dense_29/BiasAdd"], "attr": {"T": {"type": "DT_FLOAT"}}}, {"name": "StatefulPartitionedCall/model_2/model_1/conv2d_mod_non_fused_2/ExpandDims", "op": "ExpandDims", "input": ["StatefulPartitionedCall/model_2/model_1/conv2d_mod_non_fused_2/add", "StatefulPartitionedCall/model_2/model_1/conv2d_mod_non_fused_2/ExpandDims/dim"], "attr": {"Tdim": {"type": "DT_INT32"}, "T": {"type": "DT_FLOAT"}}}, {"name": "StatefulPartitionedCall/model_2/model_1/lambda/add", "op": "AddV2", "input": ["StatefulPartitionedCall/model_2/model_1/conv2d_mod_non_fused_2/add/y", "StatefulPartitionedCall/model_2/model_1/lambda/mul"], "attr": {"T": {"type": "DT_FLOAT"}}}, {"name": "StatefulPartitionedCall/model_2/model_1/conv2d_mod_non_fused/ExpandDims", "op": "ExpandDims", "input": ["StatefulPartitionedCall/model_2/model_1/conv2d_mod_non_fused/add", "StatefulPartitionedCall/model_2/model_1/conv2d_mod_non_fused_2/ExpandDims/dim"], "attr": {"T": {"type": "DT_FLOAT"}, "Tdim": {"type": "DT_INT32"}}}, {"name": "StatefulPartitionedCall/model_2/model_1/conv2d_mod_non_fused_1/ExpandDims", "op": "ExpandDims", "input": ["StatefulPartitionedCall/model_2/model_1/conv2d_mod_non_fused_1/add", "StatefulPartitionedCall/model_2/model_1/conv2d_mod_non_fused_2/ExpandDims/dim"], "attr": {"T": {"type": "DT_FLOAT"}, "Tdim": {"type": "DT_INT32"}}}, {"name": "StatefulPartitionedCall/model_2/model_1/conv2d_mod_non_fused_5/ExpandDims", "op": "ExpandDims", "input": ["StatefulPartitionedCall/model_2/model_1/conv2d_mod_non_fused_5/add", "StatefulPartitionedCall/model_2/model_1/conv2d_mod_non_fused_2/ExpandDims/dim"], "attr": {"Tdim": {"type": "DT_INT32"}, "T": {"type": "DT_FLOAT"}}}, {"name": "StatefulPartitionedCall/model_2/model_1/conv2d_mod_non_fused_3/ExpandDims", "op": "ExpandDims", "input": ["StatefulPartitionedCall/model_2/model_1/conv2d_mod_non_fused_3/add", "StatefulPartitionedCall/model_2/model_1/conv2d_mod_non_fused_2/ExpandDims/dim"], "attr": {"T": {"type": "DT_FLOAT"}, "Tdim": {"type": "DT_INT32"}}}, {"name": "StatefulPartitionedCall/model_2/model_1/conv2d_mod_non_fused_4/ExpandDims", "op": "ExpandDims", "input": ["StatefulPartitionedCall/model_2/model_1/conv2d_mod_non_fused_4/add", "StatefulPartitionedCall/model_2/model_1/conv2d_mod_non_fused_2/ExpandDims/dim"], "attr": {"T": {"type": "DT_FLOAT"}, "Tdim": {"type": "DT_INT32"}}}, {"name": "StatefulPartitionedCall/model_2/model_1/conv2d_mod_non_fused_8/ExpandDims", "op": "ExpandDims", "input": ["StatefulPartitionedCall/model_2/model_1/conv2d_mod_non_fused_8/add", "StatefulPartitionedCall/model_2/model_1/conv2d_mod_non_fused_2/ExpandDims/dim"], "attr": {"T": {"type": "DT_FLOAT"}, "Tdim": {"type": "DT_INT32"}}}, {"name": "StatefulPartitionedCall/model_2/model_1/conv2d_mod_non_fused_6/ExpandDims", "op": "ExpandDims", "input": ["StatefulPartitionedCall/model_2/model_1/conv2d_mod_non_fused_6/add", "StatefulPartitionedCall/model_2/model_1/conv2d_mod_non_fused_2/ExpandDims/dim"], "attr": {"T": {"type": "DT_FLOAT"}, "Tdim": {"type": "DT_INT32"}}}, {"name": "StatefulPartitionedCall/model_2/model_1/conv2d_mod_non_fused_7/ExpandDims", "op": "ExpandDims", "input": ["StatefulPartitionedCall/model_2/model_1/conv2d_mod_non_fused_7/add", "StatefulPartitionedCall/model_2/model_1/conv2d_mod_non_fused_2/ExpandDims/dim"], "attr": {"Tdim": {"type": "DT_INT32"}, "T": {"type": "DT_FLOAT"}}}, {"name": "StatefulPartitionedCall/model_2/model_1/conv2d_mod_non_fused_11/ExpandDims", "op": "ExpandDims", "input": ["StatefulPartitionedCall/model_2/model_1/conv2d_mod_non_fused_11/add", "StatefulPartitionedCall/model_2/model_1/conv2d_mod_non_fused_2/ExpandDims/dim"], "attr": {"Tdim": {"type": "DT_INT32"}, "T": {"type": "DT_FLOAT"}}}, {"name": "StatefulPartitionedCall/model_2/model_1/conv2d_mod_non_fused_9/ExpandDims", "op": "ExpandDims", "input": ["StatefulPartitionedCall/model_2/model_1/conv2d_mod_non_fused_9/add", "StatefulPartitionedCall/model_2/model_1/conv2d_mod_non_fused_2/ExpandDims/dim"], "attr": {"Tdim": {"type": "DT_INT32"}, "T": {"type": "DT_FLOAT"}}}, {"name": "StatefulPartitionedCall/model_2/model_1/conv2d_mod_non_fused_10/ExpandDims", "op": "ExpandDims", "input": ["StatefulPartitionedCall/model_2/model_1/conv2d_mod_non_fused_10/add", "StatefulPartitionedCall/model_2/model_1/conv2d_mod_non_fused_2/ExpandDims/dim"], "attr": {"Tdim": {"type": "DT_INT32"}, "T": {"type": "DT_FLOAT"}}}, {"name": "StatefulPartitionedCall/model_2/model_1/conv2d_mod_non_fused_14/ExpandDims", "op": "ExpandDims", "input": ["StatefulPartitionedCall/model_2/model_1/conv2d_mod_non_fused_14/add", "StatefulPartitionedCall/model_2/model_1/conv2d_mod_non_fused_2/ExpandDims/dim"], "attr": {"Tdim": {"type": "DT_INT32"}, "T": {"type": "DT_FLOAT"}}}, {"name": "StatefulPartitionedCall/model_2/model_1/conv2d_mod_non_fused_12/ExpandDims", "op": "ExpandDims", "input": ["StatefulPartitionedCall/model_2/model_1/conv2d_mod_non_fused_12/add", "StatefulPartitionedCall/model_2/model_1/conv2d_mod_non_fused_2/ExpandDims/dim"], "attr": {"T": {"type": "DT_FLOAT"}, "Tdim": {"type": "DT_INT32"}}}, {"name": "StatefulPartitionedCall/model_2/model_1/conv2d_mod_non_fused_13/ExpandDims", "op": "ExpandDims", "input": ["StatefulPartitionedCall/model_2/model_1/conv2d_mod_non_fused_13/add", "StatefulPartitionedCall/model_2/model_1/conv2d_mod_non_fused_2/ExpandDims/dim"], "attr": {"T": {"type": "DT_FLOAT"}, "Tdim": {"type": "DT_INT32"}}}, {"name": "StatefulPartitionedCall/model_2/model_1/conv2d_mod_non_fused_2/ExpandDims_1", "op": "ExpandDims", "input": ["StatefulPartitionedCall/model_2/model_1/conv2d_mod_non_fused_2/ExpandDims", "StatefulPartitionedCall/model_2/model_1/conv2d_mod_non_fused_2/ExpandDims/dim"], "attr": {"Tdim": {"type": "DT_INT32"}, "T": {"type": "DT_FLOAT"}}}, {"name": "StatefulPartitionedCall/model_2/model_1/dense_5/Relu", "op": "_FusedMatMul", "input": ["StatefulPartitionedCall/model_2/model_1/lambda/add", "Func/StatefulPartitionedCall/input/_15", "Func/StatefulPartitionedCall/input/_16"], "device": "/device:CPU:0", "attr": {"num_args": {"i": "1"}, "epsilon": {"f": 0.0}, "fused_ops": {"list": {"s": ["Qmlhc0FkZA==", "UmVsdQ=="]}}, "transpose_a": {"b": false}, "transpose_b": {"b": false}, "T": {"type": "DT_FLOAT"}}}, {"name": "StatefulPartitionedCall/model_2/model_1/conv2d_mod_non_fused/ExpandDims_1", "op": "ExpandDims", "input": ["StatefulPartitionedCall/model_2/model_1/conv2d_mod_non_fused/ExpandDims", "StatefulPartitionedCall/model_2/model_1/conv2d_mod_non_fused_2/ExpandDims/dim"], "attr": {"Tdim": {"type": "DT_INT32"}, "T": {"type": "DT_FLOAT"}}}, {"name": "StatefulPartitionedCall/model_2/model_1/conv2d_mod_non_fused_1/ExpandDims_1", "op": "ExpandDims", "input": ["StatefulPartitionedCall/model_2/model_1/conv2d_mod_non_fused_1/ExpandDims", "StatefulPartitionedCall/model_2/model_1/conv2d_mod_non_fused_2/ExpandDims/dim"], "attr": {"Tdim": {"type": "DT_INT32"}, "T": {"type": "DT_FLOAT"}}}, {"name": "StatefulPartitionedCall/model_2/model_1/conv2d_mod_non_fused_5/ExpandDims_1", "op": "ExpandDims", "input": ["StatefulPartitionedCall/model_2/model_1/conv2d_mod_non_fused_5/ExpandDims", "StatefulPartitionedCall/model_2/model_1/conv2d_mod_non_fused_2/ExpandDims/dim"], "attr": {"Tdim": {"type": "DT_INT32"}, "T": {"type": "DT_FLOAT"}}}, {"name": "StatefulPartitionedCall/model_2/model_1/conv2d_mod_non_fused_3/ExpandDims_1", "op": "ExpandDims", "input": ["StatefulPartitionedCall/model_2/model_1/conv2d_mod_non_fused_3/ExpandDims", "StatefulPartitionedCall/model_2/model_1/conv2d_mod_non_fused_2/ExpandDims/dim"], "attr": {"Tdim": {"type": "DT_INT32"}, "T": {"type": "DT_FLOAT"}}}, {"name": "StatefulPartitionedCall/model_2/model_1/conv2d_mod_non_fused_4/ExpandDims_1", "op": "ExpandDims", "input": ["StatefulPartitionedCall/model_2/model_1/conv2d_mod_non_fused_4/ExpandDims", "StatefulPartitionedCall/model_2/model_1/conv2d_mod_non_fused_2/ExpandDims/dim"], "attr": {"T": {"type": "DT_FLOAT"}, "Tdim": {"type": "DT_INT32"}}}, {"name": "StatefulPartitionedCall/model_2/model_1/conv2d_mod_non_fused_8/ExpandDims_1", "op": "ExpandDims", "input": ["StatefulPartitionedCall/model_2/model_1/conv2d_mod_non_fused_8/ExpandDims", "StatefulPartitionedCall/model_2/model_1/conv2d_mod_non_fused_2/ExpandDims/dim"], "attr": {"Tdim": {"type": "DT_INT32"}, "T": {"type": "DT_FLOAT"}}}, {"name": "StatefulPartitionedCall/model_2/model_1/conv2d_mod_non_fused_6/ExpandDims_1", "op": "ExpandDims", "input": ["StatefulPartitionedCall/model_2/model_1/conv2d_mod_non_fused_6/ExpandDims", "StatefulPartitionedCall/model_2/model_1/conv2d_mod_non_fused_2/ExpandDims/dim"], "attr": {"Tdim": {"type": "DT_INT32"}, "T": {"type": "DT_FLOAT"}}}, {"name": "StatefulPartitionedCall/model_2/model_1/conv2d_mod_non_fused_7/ExpandDims_1", "op": "ExpandDims", "input": ["StatefulPartitionedCall/model_2/model_1/conv2d_mod_non_fused_7/ExpandDims", "StatefulPartitionedCall/model_2/model_1/conv2d_mod_non_fused_2/ExpandDims/dim"], "attr": {"Tdim": {"type": "DT_INT32"}, "T": {"type": "DT_FLOAT"}}}, {"name": "StatefulPartitionedCall/model_2/model_1/conv2d_mod_non_fused_11/ExpandDims_1", "op": "ExpandDims", "input": ["StatefulPartitionedCall/model_2/model_1/conv2d_mod_non_fused_11/ExpandDims", "StatefulPartitionedCall/model_2/model_1/conv2d_mod_non_fused_2/ExpandDims/dim"], "attr": {"Tdim": {"type": "DT_INT32"}, "T": {"type": "DT_FLOAT"}}}, {"name": "StatefulPartitionedCall/model_2/model_1/conv2d_mod_non_fused_9/ExpandDims_1", "op": "ExpandDims", "input": ["StatefulPartitionedCall/model_2/model_1/conv2d_mod_non_fused_9/ExpandDims", "StatefulPartitionedCall/model_2/model_1/conv2d_mod_non_fused_2/ExpandDims/dim"], "attr": {"Tdim": {"type": "DT_INT32"}, "T": {"type": "DT_FLOAT"}}}, {"name": "StatefulPartitionedCall/model_2/model_1/conv2d_mod_non_fused_10/ExpandDims_1", "op": "ExpandDims", "input": ["StatefulPartitionedCall/model_2/model_1/conv2d_mod_non_fused_10/ExpandDims", "StatefulPartitionedCall/model_2/model_1/conv2d_mod_non_fused_2/ExpandDims/dim"], "attr": {"Tdim": {"type": "DT_INT32"}, "T": {"type": "DT_FLOAT"}}}, {"name": "StatefulPartitionedCall/model_2/model_1/conv2d_mod_non_fused_14/ExpandDims_1", "op": "ExpandDims", "input": ["StatefulPartitionedCall/model_2/model_1/conv2d_mod_non_fused_14/ExpandDims", "StatefulPartitionedCall/model_2/model_1/conv2d_mod_non_fused_2/ExpandDims/dim"], "attr": {"Tdim": {"type": "DT_INT32"}, "T": {"type": "DT_FLOAT"}}}, {"name": "StatefulPartitionedCall/model_2/model_1/conv2d_mod_non_fused_12/ExpandDims_1", "op": "ExpandDims", "input": ["StatefulPartitionedCall/model_2/model_1/conv2d_mod_non_fused_12/ExpandDims", "StatefulPartitionedCall/model_2/model_1/conv2d_mod_non_fused_2/ExpandDims/dim"], "attr": {"Tdim": {"type": "DT_INT32"}, "T": {"type": "DT_FLOAT"}}}, {"name": "StatefulPartitionedCall/model_2/model_1/conv2d_mod_non_fused_13/ExpandDims_1", "op": "ExpandDims", "input": ["StatefulPartitionedCall/model_2/model_1/conv2d_mod_non_fused_13/ExpandDims", "StatefulPartitionedCall/model_2/model_1/conv2d_mod_non_fused_2/ExpandDims/dim"], "attr": {"T": {"type": "DT_FLOAT"}, "Tdim": {"type": "DT_INT32"}}}, {"name": "StatefulPartitionedCall/model_2/model_1/reshape/Shape", "op": "Shape", "input": ["StatefulPartitionedCall/model_2/model_1/dense_5/Relu"], "attr": {"T": {"type": "DT_FLOAT"}, "out_type": {"type": "DT_INT32"}}}, {"name": "StatefulPartitionedCall/model_2/model_1/conv2d_mod_non_fused/ExpandDims_3", "op": "ExpandDims", "input": ["StatefulPartitionedCall/model_2/model_1/conv2d_mod_non_fused/ExpandDims_1", "StatefulPartitionedCall/model_2/model_1/conv2d_mod_non_fused/ExpandDims_3/dim"], "attr": {"Tdim": {"type": "DT_INT32"}, "T": {"type": "DT_FLOAT"}}}, {"name": "StatefulPartitionedCall/model_2/model_1/conv2d_mod_non_fused_1/ExpandDims_3", "op": "ExpandDims", "input": ["StatefulPartitionedCall/model_2/model_1/conv2d_mod_non_fused_1/ExpandDims_1", "StatefulPartitionedCall/model_2/model_1/conv2d_mod_non_fused/ExpandDims_3/dim"], "attr": {"Tdim": {"type": "DT_INT32"}, "T": {"type": "DT_FLOAT"}}}, {"name": "StatefulPartitionedCall/model_2/model_1/conv2d_mod_non_fused_3/ExpandDims_3", "op": "ExpandDims", "input": ["StatefulPartitionedCall/model_2/model_1/conv2d_mod_non_fused_3/ExpandDims_1", "StatefulPartitionedCall/model_2/model_1/conv2d_mod_non_fused/ExpandDims_3/dim"], "attr": {"Tdim": {"type": "DT_INT32"}, "T": {"type": "DT_FLOAT"}}}, {"name": "StatefulPartitionedCall/model_2/model_1/conv2d_mod_non_fused_4/ExpandDims_3", "op": "ExpandDims", "input": ["StatefulPartitionedCall/model_2/model_1/conv2d_mod_non_fused_4/ExpandDims_1", "StatefulPartitionedCall/model_2/model_1/conv2d_mod_non_fused/ExpandDims_3/dim"], "attr": {"Tdim": {"type": "DT_INT32"}, "T": {"type": "DT_FLOAT"}}}, {"name": "StatefulPartitionedCall/model_2/model_1/conv2d_mod_non_fused_6/ExpandDims_3", "op": "ExpandDims", "input": ["StatefulPartitionedCall/model_2/model_1/conv2d_mod_non_fused_6/ExpandDims_1", "StatefulPartitionedCall/model_2/model_1/conv2d_mod_non_fused/ExpandDims_3/dim"], "attr": {"Tdim": {"type": "DT_INT32"}, "T": {"type": "DT_FLOAT"}}}, {"name": "StatefulPartitionedCall/model_2/model_1/conv2d_mod_non_fused_7/ExpandDims_3", "op": "ExpandDims", "input": ["StatefulPartitionedCall/model_2/model_1/conv2d_mod_non_fused_7/ExpandDims_1", "StatefulPartitionedCall/model_2/model_1/conv2d_mod_non_fused/ExpandDims_3/dim"], "attr": {"Tdim": {"type": "DT_INT32"}, "T": {"type": "DT_FLOAT"}}}, {"name": "StatefulPartitionedCall/model_2/model_1/conv2d_mod_non_fused_9/ExpandDims_3", "op": "ExpandDims", "input": ["StatefulPartitionedCall/model_2/model_1/conv2d_mod_non_fused_9/ExpandDims_1", "StatefulPartitionedCall/model_2/model_1/conv2d_mod_non_fused/ExpandDims_3/dim"], "attr": {"T": {"type": "DT_FLOAT"}, "Tdim": {"type": "DT_INT32"}}}, {"name": "StatefulPartitionedCall/model_2/model_1/conv2d_mod_non_fused_10/ExpandDims_3", "op": "ExpandDims", "input": ["StatefulPartitionedCall/model_2/model_1/conv2d_mod_non_fused_10/ExpandDims_1", "StatefulPartitionedCall/model_2/model_1/conv2d_mod_non_fused/ExpandDims_3/dim"], "attr": {"Tdim": {"type": "DT_INT32"}, "T": {"type": "DT_FLOAT"}}}, {"name": "StatefulPartitionedCall/model_2/model_1/conv2d_mod_non_fused_12/ExpandDims_3", "op": "ExpandDims", "input": ["StatefulPartitionedCall/model_2/model_1/conv2d_mod_non_fused_12/ExpandDims_1", "StatefulPartitionedCall/model_2/model_1/conv2d_mod_non_fused/ExpandDims_3/dim"], "attr": {"T": {"type": "DT_FLOAT"}, "Tdim": {"type": "DT_INT32"}}}, {"name": "StatefulPartitionedCall/model_2/model_1/conv2d_mod_non_fused_13/ExpandDims_3", "op": "ExpandDims", "input": ["StatefulPartitionedCall/model_2/model_1/conv2d_mod_non_fused_13/ExpandDims_1", "StatefulPartitionedCall/model_2/model_1/conv2d_mod_non_fused/ExpandDims_3/dim"], "attr": {"Tdim": {"type": "DT_INT32"}, "T": {"type": "DT_FLOAT"}}}, {"name": "StatefulPartitionedCall/model_2/model_1/reshape/strided_slice", "op": "StridedSlice", "input": ["StatefulPartitionedCall/model_2/model_1/reshape/Shape", "StatefulPartitionedCall/model_2/model_1/reshape/strided_slice/stack", "StatefulPartitionedCall/model_2/model_1/lambda_2/strided_slice/stack", "StatefulPartitionedCall/model_2/model_1/lambda_2/strided_slice/stack"], "attr": {"end_mask": {"i": "0"}, "T": {"type": "DT_INT32"}, "Index": {"type": "DT_INT32"}, "shrink_axis_mask": {"i": "1"}, "begin_mask": {"i": "0"}, "ellipsis_mask": {"i": "0"}, "new_axis_mask": {"i": "0"}}}, {"name": "StatefulPartitionedCall/model_2/model_1/conv2d_mod_non_fused/mul", "op": "Mul", "input": ["StatefulPartitionedCall/model_2/model_1/conv2d_mod_non_fused/ExpandDims_2", "StatefulPartitionedCall/model_2/model_1/conv2d_mod_non_fused/ExpandDims_3"], "attr": {"T": {"type": "DT_FLOAT"}}}, {"name": "StatefulPartitionedCall/model_2/model_1/conv2d_mod_non_fused_1/mul", "op": "Mul", "input": ["StatefulPartitionedCall/model_2/model_1/conv2d_mod_non_fused_1/ExpandDims_2", "StatefulPartitionedCall/model_2/model_1/conv2d_mod_non_fused_1/ExpandDims_3"], "attr": {"T": {"type": "DT_FLOAT"}}}, {"name": "StatefulPartitionedCall/model_2/model_1/conv2d_mod_non_fused_3/mul", "op": "Mul", "input": ["StatefulPartitionedCall/model_2/model_1/conv2d_mod_non_fused_3/ExpandDims_2", "StatefulPartitionedCall/model_2/model_1/conv2d_mod_non_fused_3/ExpandDims_3"], "attr": {"T": {"type": "DT_FLOAT"}}}, {"name": "StatefulPartitionedCall/model_2/model_1/conv2d_mod_non_fused_4/mul", "op": "Mul", "input": ["StatefulPartitionedCall/model_2/model_1/conv2d_mod_non_fused_4/ExpandDims_2", "StatefulPartitionedCall/model_2/model_1/conv2d_mod_non_fused_4/ExpandDims_3"], "attr": {"T": {"type": "DT_FLOAT"}}}, {"name": "StatefulPartitionedCall/model_2/model_1/conv2d_mod_non_fused_6/mul", "op": "Mul", "input": ["StatefulPartitionedCall/model_2/model_1/conv2d_mod_non_fused_6/ExpandDims_2", "StatefulPartitionedCall/model_2/model_1/conv2d_mod_non_fused_6/ExpandDims_3"], "attr": {"T": {"type": "DT_FLOAT"}}}, {"name": "StatefulPartitionedCall/model_2/model_1/conv2d_mod_non_fused_7/mul", "op": "Mul", "input": ["StatefulPartitionedCall/model_2/model_1/conv2d_mod_non_fused_7/ExpandDims_2", "StatefulPartitionedCall/model_2/model_1/conv2d_mod_non_fused_7/ExpandDims_3"], "attr": {"T": {"type": "DT_FLOAT"}}}, {"name": "StatefulPartitionedCall/model_2/model_1/conv2d_mod_non_fused_9/mul", "op": "Mul", "input": ["StatefulPartitionedCall/model_2/model_1/conv2d_mod_non_fused_9/ExpandDims_2", "StatefulPartitionedCall/model_2/model_1/conv2d_mod_non_fused_9/ExpandDims_3"], "attr": {"T": {"type": "DT_FLOAT"}}}, {"name": "StatefulPartitionedCall/model_2/model_1/conv2d_mod_non_fused_10/mul", "op": "Mul", "input": ["StatefulPartitionedCall/model_2/model_1/conv2d_mod_non_fused_10/ExpandDims_2", "StatefulPartitionedCall/model_2/model_1/conv2d_mod_non_fused_10/ExpandDims_3"], "attr": {"T": {"type": "DT_FLOAT"}}}, {"name": "StatefulPartitionedCall/model_2/model_1/conv2d_mod_non_fused_12/mul", "op": "Mul", "input": ["StatefulPartitionedCall/model_2/model_1/conv2d_mod_non_fused_12/ExpandDims_2", "StatefulPartitionedCall/model_2/model_1/conv2d_mod_non_fused_12/ExpandDims_3"], "attr": {"T": {"type": "DT_FLOAT"}}}, {"name": "StatefulPartitionedCall/model_2/model_1/conv2d_mod_non_fused_13/mul", "op": "Mul", "input": ["StatefulPartitionedCall/model_2/model_1/conv2d_mod_non_fused_13/ExpandDims_2", "StatefulPartitionedCall/model_2/model_1/conv2d_mod_non_fused_13/ExpandDims_3"], "attr": {"T": {"type": "DT_FLOAT"}}}, {"name": "StatefulPartitionedCall/model_2/model_1/reshape/Reshape/shape", "op": "Pack", "input": ["StatefulPartitionedCall/model_2/model_1/reshape/strided_slice", "StatefulPartitionedCall/model_2/model_1/reshape/Reshape/shape/1", "StatefulPartitionedCall/model_2/model_1/reshape/Reshape/shape/1", "StatefulPartitionedCall/model_2/model_1/reshape/Reshape/shape/3"], "attr": {"T": {"type": "DT_INT32"}, "axis": {"i": "0"}, "N": {"i": "4"}}}, {"name": "StatefulPartitionedCall/model_2/model_1/conv2d_mod_non_fused/Square", "op": "Square", "input": ["StatefulPartitionedCall/model_2/model_1/conv2d_mod_non_fused/mul"], "attr": {"T": {"type": "DT_FLOAT"}}}, {"name": "StatefulPartitionedCall/model_2/model_1/conv2d_mod_non_fused_1/Square", "op": "Square", "input": ["StatefulPartitionedCall/model_2/model_1/conv2d_mod_non_fused_1/mul"], "attr": {"T": {"type": "DT_FLOAT"}}}, {"name": "StatefulPartitionedCall/model_2/model_1/conv2d_mod_non_fused_3/Square", "op": "Square", "input": ["StatefulPartitionedCall/model_2/model_1/conv2d_mod_non_fused_3/mul"], "attr": {"T": {"type": "DT_FLOAT"}}}, {"name": "StatefulPartitionedCall/model_2/model_1/conv2d_mod_non_fused_4/Square", "op": "Square", "input": ["StatefulPartitionedCall/model_2/model_1/conv2d_mod_non_fused_4/mul"], "attr": {"T": {"type": "DT_FLOAT"}}}, {"name": "StatefulPartitionedCall/model_2/model_1/conv2d_mod_non_fused_6/Square", "op": "Square", "input": ["StatefulPartitionedCall/model_2/model_1/conv2d_mod_non_fused_6/mul"], "attr": {"T": {"type": "DT_FLOAT"}}}, {"name": "StatefulPartitionedCall/model_2/model_1/conv2d_mod_non_fused_7/Square", "op": "Square", "input": ["StatefulPartitionedCall/model_2/model_1/conv2d_mod_non_fused_7/mul"], "attr": {"T": {"type": "DT_FLOAT"}}}, {"name": "StatefulPartitionedCall/model_2/model_1/conv2d_mod_non_fused_9/Square", "op": "Square", "input": ["StatefulPartitionedCall/model_2/model_1/conv2d_mod_non_fused_9/mul"], "attr": {"T": {"type": "DT_FLOAT"}}}, {"name": "StatefulPartitionedCall/model_2/model_1/conv2d_mod_non_fused_10/Square", "op": "Square", "input": ["StatefulPartitionedCall/model_2/model_1/conv2d_mod_non_fused_10/mul"], "attr": {"T": {"type": "DT_FLOAT"}}}, {"name": "StatefulPartitionedCall/model_2/model_1/conv2d_mod_non_fused_12/Square", "op": "Square", "input": ["StatefulPartitionedCall/model_2/model_1/conv2d_mod_non_fused_12/mul"], "attr": {"T": {"type": "DT_FLOAT"}}}, {"name": "StatefulPartitionedCall/model_2/model_1/conv2d_mod_non_fused_13/Square", "op": "Square", "input": ["StatefulPartitionedCall/model_2/model_1/conv2d_mod_non_fused_13/mul"], "attr": {"T": {"type": "DT_FLOAT"}}}, {"name": "StatefulPartitionedCall/model_2/model_1/reshape/Reshape", "op": "Reshape", "input": ["StatefulPartitionedCall/model_2/model_1/dense_5/Relu", "StatefulPartitionedCall/model_2/model_1/reshape/Reshape/shape"], "attr": {"T": {"type": "DT_FLOAT"}, "Tshape": {"type": "DT_INT32"}}}, {"name": "StatefulPartitionedCall/model_2/model_1/conv2d_mod_non_fused/Sum", "op": "Sum", "input": ["StatefulPartitionedCall/model_2/model_1/conv2d_mod_non_fused/Square", "StatefulPartitionedCall/model_2/model_1/conv2d_mod_non_fused/Sum/reduction_indices"], "attr": {"T": {"type": "DT_FLOAT"}, "Tidx": {"type": "DT_INT32"}, "keep_dims": {"b": true}}}, {"name": "StatefulPartitionedCall/model_2/model_1/conv2d_mod_non_fused_1/Sum", "op": "Sum", "input": ["StatefulPartitionedCall/model_2/model_1/conv2d_mod_non_fused_1/Square", "StatefulPartitionedCall/model_2/model_1/conv2d_mod_non_fused/Sum/reduction_indices"], "attr": {"Tidx": {"type": "DT_INT32"}, "keep_dims": {"b": true}, "T": {"type": "DT_FLOAT"}}}, {"name": "StatefulPartitionedCall/model_2/model_1/conv2d_mod_non_fused_3/Sum", "op": "Sum", "input": ["StatefulPartitionedCall/model_2/model_1/conv2d_mod_non_fused_3/Square", "StatefulPartitionedCall/model_2/model_1/conv2d_mod_non_fused/Sum/reduction_indices"], "attr": {"T": {"type": "DT_FLOAT"}, "Tidx": {"type": "DT_INT32"}, "keep_dims": {"b": true}}}, {"name": "StatefulPartitionedCall/model_2/model_1/conv2d_mod_non_fused_4/Sum", "op": "Sum", "input": ["StatefulPartitionedCall/model_2/model_1/conv2d_mod_non_fused_4/Square", "StatefulPartitionedCall/model_2/model_1/conv2d_mod_non_fused/Sum/reduction_indices"], "attr": {"Tidx": {"type": "DT_INT32"}, "keep_dims": {"b": true}, "T": {"type": "DT_FLOAT"}}}, {"name": "StatefulPartitionedCall/model_2/model_1/conv2d_mod_non_fused_6/Sum", "op": "Sum", "input": ["StatefulPartitionedCall/model_2/model_1/conv2d_mod_non_fused_6/Square", "StatefulPartitionedCall/model_2/model_1/conv2d_mod_non_fused/Sum/reduction_indices"], "attr": {"T": {"type": "DT_FLOAT"}, "Tidx": {"type": "DT_INT32"}, "keep_dims": {"b": true}}}, {"name": "StatefulPartitionedCall/model_2/model_1/conv2d_mod_non_fused_7/Sum", "op": "Sum", "input": ["StatefulPartitionedCall/model_2/model_1/conv2d_mod_non_fused_7/Square", "StatefulPartitionedCall/model_2/model_1/conv2d_mod_non_fused/Sum/reduction_indices"], "attr": {"Tidx": {"type": "DT_INT32"}, "keep_dims": {"b": true}, "T": {"type": "DT_FLOAT"}}}, {"name": "StatefulPartitionedCall/model_2/model_1/conv2d_mod_non_fused_9/Sum", "op": "Sum", "input": ["StatefulPartitionedCall/model_2/model_1/conv2d_mod_non_fused_9/Square", "StatefulPartitionedCall/model_2/model_1/conv2d_mod_non_fused/Sum/reduction_indices"], "attr": {"Tidx": {"type": "DT_INT32"}, "keep_dims": {"b": true}, "T": {"type": "DT_FLOAT"}}}, {"name": "StatefulPartitionedCall/model_2/model_1/conv2d_mod_non_fused_10/Sum", "op": "Sum", "input": ["StatefulPartitionedCall/model_2/model_1/conv2d_mod_non_fused_10/Square", "StatefulPartitionedCall/model_2/model_1/conv2d_mod_non_fused/Sum/reduction_indices"], "attr": {"T": {"type": "DT_FLOAT"}, "Tidx": {"type": "DT_INT32"}, "keep_dims": {"b": true}}}, {"name": "StatefulPartitionedCall/model_2/model_1/conv2d_mod_non_fused_12/Sum", "op": "Sum", "input": ["StatefulPartitionedCall/model_2/model_1/conv2d_mod_non_fused_12/Square", "StatefulPartitionedCall/model_2/model_1/conv2d_mod_non_fused/Sum/reduction_indices"], "attr": {"T": {"type": "DT_FLOAT"}, "Tidx": {"type": "DT_INT32"}, "keep_dims": {"b": true}}}, {"name": "StatefulPartitionedCall/model_2/model_1/conv2d_mod_non_fused_13/Sum", "op": "Sum", "input": ["StatefulPartitionedCall/model_2/model_1/conv2d_mod_non_fused_13/Square", "StatefulPartitionedCall/model_2/model_1/conv2d_mod_non_fused/Sum/reduction_indices"], "attr": {"Tidx": {"type": "DT_INT32"}, "keep_dims": {"b": true}, "T": {"type": "DT_FLOAT"}}}, {"name": "StatefulPartitionedCall/model_2/model_1/conv2d_mod_non_fused/mul_1", "op": "Mul", "input": ["StatefulPartitionedCall/model_2/model_1/conv2d_mod_non_fused/ExpandDims_1", "StatefulPartitionedCall/model_2/model_1/reshape/Reshape"], "attr": {"T": {"type": "DT_FLOAT"}}}, {"name": "StatefulPartitionedCall/model_2/model_1/conv2d_mod_non_fused/add_1", "op": "AddV2", "input": ["StatefulPartitionedCall/model_2/model_1/conv2d_mod_non_fused/Sum", "StatefulPartitionedCall/model_2/model_1/conv2d_mod_non_fused/add_1/y"], "attr": {"T": {"type": "DT_FLOAT"}}}, {"name": "StatefulPartitionedCall/model_2/model_1/conv2d_mod_non_fused_1/add_1", "op": "AddV2", "input": ["StatefulPartitionedCall/model_2/model_1/conv2d_mod_non_fused/add_1/y", "StatefulPartitionedCall/model_2/model_1/conv2d_mod_non_fused_1/Sum"], "attr": {"T": {"type": "DT_FLOAT"}}}, {"name": "StatefulPartitionedCall/model_2/model_1/conv2d_mod_non_fused_3/add_1", "op": "AddV2", "input": ["StatefulPartitionedCall/model_2/model_1/conv2d_mod_non_fused/add_1/y", "StatefulPartitionedCall/model_2/model_1/conv2d_mod_non_fused_3/Sum"], "attr": {"T": {"type": "DT_FLOAT"}}}, {"name": "StatefulPartitionedCall/model_2/model_1/conv2d_mod_non_fused_4/add_1", "op": "AddV2", "input": ["StatefulPartitionedCall/model_2/model_1/conv2d_mod_non_fused/add_1/y", "StatefulPartitionedCall/model_2/model_1/conv2d_mod_non_fused_4/Sum"], "attr": {"T": {"type": "DT_FLOAT"}}}, {"name": "StatefulPartitionedCall/model_2/model_1/conv2d_mod_non_fused_6/add_1", "op": "AddV2", "input": ["StatefulPartitionedCall/model_2/model_1/conv2d_mod_non_fused/add_1/y", "StatefulPartitionedCall/model_2/model_1/conv2d_mod_non_fused_6/Sum"], "attr": {"T": {"type": "DT_FLOAT"}}}, {"name": "StatefulPartitionedCall/model_2/model_1/conv2d_mod_non_fused_7/add_1", "op": "AddV2", "input": ["StatefulPartitionedCall/model_2/model_1/conv2d_mod_non_fused/add_1/y", "StatefulPartitionedCall/model_2/model_1/conv2d_mod_non_fused_7/Sum"], "attr": {"T": {"type": "DT_FLOAT"}}}, {"name": "StatefulPartitionedCall/model_2/model_1/conv2d_mod_non_fused_9/add_1", "op": "AddV2", "input": ["StatefulPartitionedCall/model_2/model_1/conv2d_mod_non_fused/add_1/y", "StatefulPartitionedCall/model_2/model_1/conv2d_mod_non_fused_9/Sum"], "attr": {"T": {"type": "DT_FLOAT"}}}, {"name": "StatefulPartitionedCall/model_2/model_1/conv2d_mod_non_fused_10/add_1", "op": "AddV2", "input": ["StatefulPartitionedCall/model_2/model_1/conv2d_mod_non_fused/add_1/y", "StatefulPartitionedCall/model_2/model_1/conv2d_mod_non_fused_10/Sum"], "attr": {"T": {"type": "DT_FLOAT"}}}, {"name": "StatefulPartitionedCall/model_2/model_1/conv2d_mod_non_fused_12/add_1", "op": "AddV2", "input": ["StatefulPartitionedCall/model_2/model_1/conv2d_mod_non_fused/add_1/y", "StatefulPartitionedCall/model_2/model_1/conv2d_mod_non_fused_12/Sum"], "attr": {"T": {"type": "DT_FLOAT"}}}, {"name": "StatefulPartitionedCall/model_2/model_1/conv2d_mod_non_fused_13/add_1", "op": "AddV2", "input": ["StatefulPartitionedCall/model_2/model_1/conv2d_mod_non_fused/add_1/y", "StatefulPartitionedCall/model_2/model_1/conv2d_mod_non_fused_13/Sum"], "attr": {"T": {"type": "DT_FLOAT"}}}, {"name": "StatefulPartitionedCall/model_2/model_1/conv2d_mod_non_fused/Conv2D", "op": "Conv2D", "input": ["StatefulPartitionedCall/model_2/model_1/conv2d_mod_non_fused/mul_1", "Func/StatefulPartitionedCall/input/_19"], "device": "/device:CPU:0", "attr": {"dilations": {"list": {"i": ["1", "1", "1", "1"]}}, "T": {"type": "DT_FLOAT"}, "data_format": {"s": "TkhXQw=="}, "strides": {"list": {"i": ["1", "1", "1", "1"]}}, "use_cudnn_on_gpu": {"b": true}, "explicit_paddings": {"list": {}}, "padding": {"s": "U0FNRQ=="}}}, {"name": "StatefulPartitionedCall/model_2/model_1/conv2d_mod_non_fused/clip_by_value/Minimum", "op": "Minimum", "input": ["StatefulPartitionedCall/model_2/model_1/conv2d_mod_non_fused/add_1", "StatefulPartitionedCall/model_2/model_1/conv2d_mod_non_fused/Const_1"], "attr": {"T": {"type": "DT_FLOAT"}}}, {"name": "StatefulPartitionedCall/model_2/model_1/conv2d_mod_non_fused_1/clip_by_value/Minimum", "op": "Minimum", "input": ["StatefulPartitionedCall/model_2/model_1/conv2d_mod_non_fused_1/add_1", "StatefulPartitionedCall/model_2/model_1/conv2d_mod_non_fused/Const_1"], "attr": {"T": {"type": "DT_FLOAT"}}}, {"name": "StatefulPartitionedCall/model_2/model_1/conv2d_mod_non_fused_3/clip_by_value/Minimum", "op": "Minimum", "input": ["StatefulPartitionedCall/model_2/model_1/conv2d_mod_non_fused_3/add_1", "StatefulPartitionedCall/model_2/model_1/conv2d_mod_non_fused/Const_1"], "attr": {"T": {"type": "DT_FLOAT"}}}, {"name": "StatefulPartitionedCall/model_2/model_1/conv2d_mod_non_fused_4/clip_by_value/Minimum", "op": "Minimum", "input": ["StatefulPartitionedCall/model_2/model_1/conv2d_mod_non_fused_4/add_1", "StatefulPartitionedCall/model_2/model_1/conv2d_mod_non_fused/Const_1"], "attr": {"T": {"type": "DT_FLOAT"}}}, {"name": "StatefulPartitionedCall/model_2/model_1/conv2d_mod_non_fused_6/clip_by_value/Minimum", "op": "Minimum", "input": ["StatefulPartitionedCall/model_2/model_1/conv2d_mod_non_fused_6/add_1", "StatefulPartitionedCall/model_2/model_1/conv2d_mod_non_fused/Const_1"], "attr": {"T": {"type": "DT_FLOAT"}}}, {"name": "StatefulPartitionedCall/model_2/model_1/conv2d_mod_non_fused_7/clip_by_value/Minimum", "op": "Minimum", "input": ["StatefulPartitionedCall/model_2/model_1/conv2d_mod_non_fused_7/add_1", "StatefulPartitionedCall/model_2/model_1/conv2d_mod_non_fused/Const_1"], "attr": {"T": {"type": "DT_FLOAT"}}}, {"name": "StatefulPartitionedCall/model_2/model_1/conv2d_mod_non_fused_9/clip_by_value/Minimum", "op": "Minimum", "input": ["StatefulPartitionedCall/model_2/model_1/conv2d_mod_non_fused_9/add_1", "StatefulPartitionedCall/model_2/model_1/conv2d_mod_non_fused/Const_1"], "attr": {"T": {"type": "DT_FLOAT"}}}, {"name": "StatefulPartitionedCall/model_2/model_1/conv2d_mod_non_fused_10/clip_by_value/Minimum", "op": "Minimum", "input": ["StatefulPartitionedCall/model_2/model_1/conv2d_mod_non_fused_10/add_1", "StatefulPartitionedCall/model_2/model_1/conv2d_mod_non_fused/Const_1"], "attr": {"T": {"type": "DT_FLOAT"}}}, {"name": "StatefulPartitionedCall/model_2/model_1/conv2d_mod_non_fused_12/clip_by_value/Minimum", "op": "Minimum", "input": ["StatefulPartitionedCall/model_2/model_1/conv2d_mod_non_fused_12/add_1", "StatefulPartitionedCall/model_2/model_1/conv2d_mod_non_fused/Const_1"], "attr": {"T": {"type": "DT_FLOAT"}}}, {"name": "StatefulPartitionedCall/model_2/model_1/conv2d_mod_non_fused_13/clip_by_value/Minimum", "op": "Minimum", "input": ["StatefulPartitionedCall/model_2/model_1/conv2d_mod_non_fused_13/add_1", "StatefulPartitionedCall/model_2/model_1/conv2d_mod_non_fused/Const_1"], "attr": {"T": {"type": "DT_FLOAT"}}}, {"name": "StatefulPartitionedCall/model_2/model_1/conv2d_mod_non_fused/clip_by_value", "op": "Maximum", "input": ["StatefulPartitionedCall/model_2/model_1/conv2d_mod_non_fused/clip_by_value/Minimum", "StatefulPartitionedCall/model_2/model_1/lambda/mul/y"], "attr": {"T": {"type": "DT_FLOAT"}}}, {"name": "StatefulPartitionedCall/model_2/model_1/conv2d_mod_non_fused_1/clip_by_value", "op": "Maximum", "input": ["StatefulPartitionedCall/model_2/model_1/conv2d_mod_non_fused_1/clip_by_value/Minimum", "StatefulPartitionedCall/model_2/model_1/lambda/mul/y"], "attr": {"T": {"type": "DT_FLOAT"}}}, {"name": "StatefulPartitionedCall/model_2/model_1/conv2d_mod_non_fused_3/clip_by_value", "op": "Maximum", "input": ["StatefulPartitionedCall/model_2/model_1/conv2d_mod_non_fused_3/clip_by_value/Minimum", "StatefulPartitionedCall/model_2/model_1/lambda/mul/y"], "attr": {"T": {"type": "DT_FLOAT"}}}, {"name": "StatefulPartitionedCall/model_2/model_1/conv2d_mod_non_fused_4/clip_by_value", "op": "Maximum", "input": ["StatefulPartitionedCall/model_2/model_1/conv2d_mod_non_fused_4/clip_by_value/Minimum", "StatefulPartitionedCall/model_2/model_1/lambda/mul/y"], "attr": {"T": {"type": "DT_FLOAT"}}}, {"name": "StatefulPartitionedCall/model_2/model_1/conv2d_mod_non_fused_6/clip_by_value", "op": "Maximum", "input": ["StatefulPartitionedCall/model_2/model_1/conv2d_mod_non_fused_6/clip_by_value/Minimum", "StatefulPartitionedCall/model_2/model_1/lambda/mul/y"], "attr": {"T": {"type": "DT_FLOAT"}}}, {"name": "StatefulPartitionedCall/model_2/model_1/conv2d_mod_non_fused_7/clip_by_value", "op": "Maximum", "input": ["StatefulPartitionedCall/model_2/model_1/conv2d_mod_non_fused_7/clip_by_value/Minimum", "StatefulPartitionedCall/model_2/model_1/lambda/mul/y"], "attr": {"T": {"type": "DT_FLOAT"}}}, {"name": "StatefulPartitionedCall/model_2/model_1/conv2d_mod_non_fused_9/clip_by_value", "op": "Maximum", "input": ["StatefulPartitionedCall/model_2/model_1/conv2d_mod_non_fused_9/clip_by_value/Minimum", "StatefulPartitionedCall/model_2/model_1/lambda/mul/y"], "attr": {"T": {"type": "DT_FLOAT"}}}, {"name": "StatefulPartitionedCall/model_2/model_1/conv2d_mod_non_fused_10/clip_by_value", "op": "Maximum", "input": ["StatefulPartitionedCall/model_2/model_1/conv2d_mod_non_fused_10/clip_by_value/Minimum", "StatefulPartitionedCall/model_2/model_1/lambda/mul/y"], "attr": {"T": {"type": "DT_FLOAT"}}}, {"name": "StatefulPartitionedCall/model_2/model_1/conv2d_mod_non_fused_12/clip_by_value", "op": "Maximum", "input": ["StatefulPartitionedCall/model_2/model_1/conv2d_mod_non_fused_12/clip_by_value/Minimum", "StatefulPartitionedCall/model_2/model_1/lambda/mul/y"], "attr": {"T": {"type": "DT_FLOAT"}}}, {"name": "StatefulPartitionedCall/model_2/model_1/conv2d_mod_non_fused_13/clip_by_value", "op": "Maximum", "input": ["StatefulPartitionedCall/model_2/model_1/conv2d_mod_non_fused_13/clip_by_value/Minimum", "StatefulPartitionedCall/model_2/model_1/lambda/mul/y"], "attr": {"T": {"type": "DT_FLOAT"}}}, {"name": "StatefulPartitionedCall/model_2/model_1/conv2d_mod_non_fused/Sqrt", "op": "Sqrt", "input": ["StatefulPartitionedCall/model_2/model_1/conv2d_mod_non_fused/clip_by_value"], "attr": {"T": {"type": "DT_FLOAT"}}}, {"name": "StatefulPartitionedCall/model_2/model_1/conv2d_mod_non_fused_1/Sqrt", "op": "Sqrt", "input": ["StatefulPartitionedCall/model_2/model_1/conv2d_mod_non_fused_1/clip_by_value"], "attr": {"T": {"type": "DT_FLOAT"}}}, {"name": "StatefulPartitionedCall/model_2/model_1/conv2d_mod_non_fused_3/Sqrt", "op": "Sqrt", "input": ["StatefulPartitionedCall/model_2/model_1/conv2d_mod_non_fused_3/clip_by_value"], "attr": {"T": {"type": "DT_FLOAT"}}}, {"name": "StatefulPartitionedCall/model_2/model_1/conv2d_mod_non_fused_4/Sqrt", "op": "Sqrt", "input": ["StatefulPartitionedCall/model_2/model_1/conv2d_mod_non_fused_4/clip_by_value"], "attr": {"T": {"type": "DT_FLOAT"}}}, {"name": "StatefulPartitionedCall/model_2/model_1/conv2d_mod_non_fused_6/Sqrt", "op": "Sqrt", "input": ["StatefulPartitionedCall/model_2/model_1/conv2d_mod_non_fused_6/clip_by_value"], "attr": {"T": {"type": "DT_FLOAT"}}}, {"name": "StatefulPartitionedCall/model_2/model_1/conv2d_mod_non_fused_7/Sqrt", "op": "Sqrt", "input": ["StatefulPartitionedCall/model_2/model_1/conv2d_mod_non_fused_7/clip_by_value"], "attr": {"T": {"type": "DT_FLOAT"}}}, {"name": "StatefulPartitionedCall/model_2/model_1/conv2d_mod_non_fused_9/Sqrt", "op": "Sqrt", "input": ["StatefulPartitionedCall/model_2/model_1/conv2d_mod_non_fused_9/clip_by_value"], "attr": {"T": {"type": "DT_FLOAT"}}}, {"name": "StatefulPartitionedCall/model_2/model_1/conv2d_mod_non_fused_10/Sqrt", "op": "Sqrt", "input": ["StatefulPartitionedCall/model_2/model_1/conv2d_mod_non_fused_10/clip_by_value"], "attr": {"T": {"type": "DT_FLOAT"}}}, {"name": "StatefulPartitionedCall/model_2/model_1/conv2d_mod_non_fused_12/Sqrt", "op": "Sqrt", "input": ["StatefulPartitionedCall/model_2/model_1/conv2d_mod_non_fused_12/clip_by_value"], "attr": {"T": {"type": "DT_FLOAT"}}}, {"name": "StatefulPartitionedCall/model_2/model_1/conv2d_mod_non_fused_13/Sqrt", "op": "Sqrt", "input": ["StatefulPartitionedCall/model_2/model_1/conv2d_mod_non_fused_13/clip_by_value"], "attr": {"T": {"type": "DT_FLOAT"}}}, {"name": "StatefulPartitionedCall/model_2/model_1/conv2d_mod_non_fused/Reshape", "op": "Reshape", "input": ["StatefulPartitionedCall/model_2/model_1/conv2d_mod_non_fused/Sqrt", "StatefulPartitionedCall/model_2/model_1/conv2d_mod_non_fused/Reshape/shape"], "attr": {"T": {"type": "DT_FLOAT"}, "Tshape": {"type": "DT_INT32"}}}, {"name": "StatefulPartitionedCall/model_2/model_1/conv2d_mod_non_fused_1/Reshape", "op": "Reshape", "input": ["StatefulPartitionedCall/model_2/model_1/conv2d_mod_non_fused_1/Sqrt", "StatefulPartitionedCall/model_2/model_1/conv2d_mod_non_fused/Reshape/shape"], "attr": {"T": {"type": "DT_FLOAT"}, "Tshape": {"type": "DT_INT32"}}}, {"name": "StatefulPartitionedCall/model_2/model_1/conv2d_mod_non_fused_3/Reshape", "op": "Reshape", "input": ["StatefulPartitionedCall/model_2/model_1/conv2d_mod_non_fused_3/Sqrt", "StatefulPartitionedCall/model_2/model_1/conv2d_mod_non_fused_3/Reshape/shape"], "attr": {"T": {"type": "DT_FLOAT"}, "Tshape": {"type": "DT_INT32"}}}, {"name": "StatefulPartitionedCall/model_2/model_1/conv2d_mod_non_fused_4/Reshape", "op": "Reshape", "input": ["StatefulPartitionedCall/model_2/model_1/conv2d_mod_non_fused_4/Sqrt", "StatefulPartitionedCall/model_2/model_1/conv2d_mod_non_fused_3/Reshape/shape"], "attr": {"T": {"type": "DT_FLOAT"}, "Tshape": {"type": "DT_INT32"}}}, {"name": "StatefulPartitionedCall/model_2/model_1/conv2d_mod_non_fused_6/Reshape", "op": "Reshape", "input": ["StatefulPartitionedCall/model_2/model_1/conv2d_mod_non_fused_6/Sqrt", "StatefulPartitionedCall/model_2/model_1/conv2d_mod_non_fused_6/Reshape/shape"], "attr": {"T": {"type": "DT_FLOAT"}, "Tshape": {"type": "DT_INT32"}}}, {"name": "StatefulPartitionedCall/model_2/model_1/conv2d_mod_non_fused_7/Reshape", "op": "Reshape", "input": ["StatefulPartitionedCall/model_2/model_1/conv2d_mod_non_fused_7/Sqrt", "StatefulPartitionedCall/model_2/model_1/conv2d_mod_non_fused_6/Reshape/shape"], "attr": {"T": {"type": "DT_FLOAT"}, "Tshape": {"type": "DT_INT32"}}}, {"name": "StatefulPartitionedCall/model_2/model_1/conv2d_mod_non_fused_9/Reshape", "op": "Reshape", "input": ["StatefulPartitionedCall/model_2/model_1/conv2d_mod_non_fused_9/Sqrt", "StatefulPartitionedCall/model_2/model_1/conv2d_mod_non_fused_9/Reshape/shape"], "attr": {"T": {"type": "DT_FLOAT"}, "Tshape": {"type": "DT_INT32"}}}, {"name": "StatefulPartitionedCall/model_2/model_1/conv2d_mod_non_fused_10/Reshape", "op": "Reshape", "input": ["StatefulPartitionedCall/model_2/model_1/conv2d_mod_non_fused_10/Sqrt", "StatefulPartitionedCall/model_2/model_1/conv2d_mod_non_fused_9/Reshape/shape"], "attr": {"T": {"type": "DT_FLOAT"}, "Tshape": {"type": "DT_INT32"}}}, {"name": "StatefulPartitionedCall/model_2/model_1/conv2d_mod_non_fused_12/Reshape", "op": "Reshape", "input": ["StatefulPartitionedCall/model_2/model_1/conv2d_mod_non_fused_12/Sqrt", "StatefulPartitionedCall/model_2/model_1/conv2d_mod_non_fused_12/Reshape/shape"], "attr": {"T": {"type": "DT_FLOAT"}, "Tshape": {"type": "DT_INT32"}}}, {"name": "StatefulPartitionedCall/model_2/model_1/conv2d_mod_non_fused_13/Reshape", "op": "Reshape", "input": ["StatefulPartitionedCall/model_2/model_1/conv2d_mod_non_fused_13/Sqrt", "StatefulPartitionedCall/model_2/model_1/conv2d_mod_non_fused_12/Reshape/shape"], "attr": {"T": {"type": "DT_FLOAT"}, "Tshape": {"type": "DT_INT32"}}}, {"name": "StatefulPartitionedCall/model_2/model_1/conv2d_mod_non_fused/truediv_1", "op": "RealDiv", "input": ["StatefulPartitionedCall/model_2/model_1/conv2d_mod_non_fused/Conv2D", "StatefulPartitionedCall/model_2/model_1/conv2d_mod_non_fused/Reshape"], "attr": {"T": {"type": "DT_FLOAT"}}}, {"name": "StatefulPartitionedCall/model_2/model_1/add_5/add", "op": "AddV2", "input": ["StatefulPartitionedCall/model_2/model_1/conv2d_mod_non_fused/truediv_1", "StatefulPartitionedCall/model_2/model_1/dense_8/BiasAdd"], "attr": {"T": {"type": "DT_FLOAT"}}}, {"name": "StatefulPartitionedCall/model_2/model_1/leaky_re_lu_14/LeakyRelu", "op": "LeakyRelu", "input": ["StatefulPartitionedCall/model_2/model_1/add_5/add"], "attr": {"T": {"type": "DT_FLOAT"}, "alpha": {"f": 0.2}}}, {"name": "StatefulPartitionedCall/model_2/model_1/conv2d_mod_non_fused_1/mul_1", "op": "Mul", "input": ["StatefulPartitionedCall/model_2/model_1/conv2d_mod_non_fused_1/ExpandDims_1", "StatefulPartitionedCall/model_2/model_1/leaky_re_lu_14/LeakyRelu"], "attr": {"T": {"type": "DT_FLOAT"}}}, {"name": "StatefulPartitionedCall/model_2/model_1/conv2d_mod_non_fused_1/Conv2D", "op": "Conv2D", "input": ["StatefulPartitionedCall/model_2/model_1/conv2d_mod_non_fused_1/mul_1", "Func/StatefulPartitionedCall/input/_24"], "device": "/device:CPU:0", "attr": {"dilations": {"list": {"i": ["1", "1", "1", "1"]}}, "T": {"type": "DT_FLOAT"}, "data_format": {"s": "TkhXQw=="}, "strides": {"list": {"i": ["1", "1", "1", "1"]}}, "use_cudnn_on_gpu": {"b": true}, "explicit_paddings": {"list": {}}, "padding": {"s": "U0FNRQ=="}}}, {"name": "StatefulPartitionedCall/model_2/model_1/conv2d_mod_non_fused_1/truediv_1", "op": "RealDiv", "input": ["StatefulPartitionedCall/model_2/model_1/conv2d_mod_non_fused_1/Conv2D", "StatefulPartitionedCall/model_2/model_1/conv2d_mod_non_fused_1/Reshape"], "attr": {"T": {"type": "DT_FLOAT"}}}, {"name": "StatefulPartitionedCall/model_2/model_1/add_6/add", "op": "AddV2", "input": ["StatefulPartitionedCall/model_2/model_1/conv2d_mod_non_fused_1/truediv_1", "StatefulPartitionedCall/model_2/model_1/dense_10/BiasAdd"], "attr": {"T": {"type": "DT_FLOAT"}}}, {"name": "StatefulPartitionedCall/model_2/model_1/leaky_re_lu_15/LeakyRelu", "op": "LeakyRelu", "input": ["StatefulPartitionedCall/model_2/model_1/add_6/add"], "attr": {"T": {"type": "DT_FLOAT"}, "alpha": {"f": 0.2}}}, {"name": "StatefulPartitionedCall/model_2/model_1/conv2d_mod_non_fused_2/mul_1", "op": "Mul", "input": ["StatefulPartitionedCall/model_2/model_1/conv2d_mod_non_fused_2/ExpandDims_1", "StatefulPartitionedCall/model_2/model_1/leaky_re_lu_15/LeakyRelu"], "attr": {"T": {"type": "DT_FLOAT"}}}, {"name": "StatefulPartitionedCall/model_2/model_1/lambda_3/Shape", "op": "Shape", "input": ["StatefulPartitionedCall/model_2/model_1/leaky_re_lu_15/LeakyRelu"], "attr": {"T": {"type": "DT_FLOAT"}, "out_type": {"type": "DT_INT32"}}}, {"name": "StatefulPartitionedCall/model_2/model_1/conv2d_mod_non_fused_2/Conv2D", "op": "Conv2D", "input": ["StatefulPartitionedCall/model_2/model_1/conv2d_mod_non_fused_2/mul_1", "Func/StatefulPartitionedCall/input/_81"], "device": "/device:CPU:0", "attr": {"dilations": {"list": {"i": ["1", "1", "1", "1"]}}, "T": {"type": "DT_FLOAT"}, "data_format": {"s": "TkhXQw=="}, "strides": {"list": {"i": ["1", "1", "1", "1"]}}, "explicit_paddings": {"list": {}}, "use_cudnn_on_gpu": {"b": true}, "padding": {"s": "U0FNRQ=="}}}, {"name": "StatefulPartitionedCall/model_2/model_1/lambda_3/strided_slice", "op": "StridedSlice", "input": ["StatefulPartitionedCall/model_2/model_1/lambda_3/Shape", "StatefulPartitionedCall/model_2/model_1/lambda_2/strided_slice/stack", "StatefulPartitionedCall/model_2/model_1/lambda_2/strided_slice/stack_1", "StatefulPartitionedCall/model_2/model_1/lambda_2/strided_slice/stack"], "attr": {"T": {"type": "DT_INT32"}, "Index": {"type": "DT_INT32"}, "shrink_axis_mask": {"i": "0"}, "begin_mask": {"i": "0"}, "ellipsis_mask": {"i": "0"}, "new_axis_mask": {"i": "0"}, "end_mask": {"i": "0"}}}, {"name": "StatefulPartitionedCall/model_2/model_1/lambda_2/Shape", "op": "Shape", "input": ["StatefulPartitionedCall/model_2/model_1/conv2d_mod_non_fused_2/Conv2D"], "attr": {"T": {"type": "DT_FLOAT"}, "out_type": {"type": "DT_INT32"}}}, {"name": "StatefulPartitionedCall/model_2/model_1/lambda_3/mul", "op": "Mul", "input": ["StatefulPartitionedCall/model_2/model_1/lambda_11/Const", "StatefulPartitionedCall/model_2/model_1/lambda_3/strided_slice"], "attr": {"T": {"type": "DT_INT32"}}}, {"name": "StatefulPartitionedCall/model_2/model_1/lambda_2/strided_slice", "op": "StridedSlice", "input": ["StatefulPartitionedCall/model_2/model_1/lambda_2/Shape", "StatefulPartitionedCall/model_2/model_1/lambda_2/strided_slice/stack", "StatefulPartitionedCall/model_2/model_1/lambda_2/strided_slice/stack_1", "StatefulPartitionedCall/model_2/model_1/lambda_2/strided_slice/stack"], "attr": {"T": {"type": "DT_INT32"}, "Index": {"type": "DT_INT32"}, "shrink_axis_mask": {"i": "0"}, "ellipsis_mask": {"i": "0"}, "begin_mask": {"i": "0"}, "new_axis_mask": {"i": "0"}, "end_mask": {"i": "0"}}}, {"name": "StatefulPartitionedCall/model_2/model_1/lambda_3/resize/ResizeBilinear", "op": "ResizeBilinear", "input": ["StatefulPartitionedCall/model_2/model_1/leaky_re_lu_15/LeakyRelu", "StatefulPartitionedCall/model_2/model_1/lambda_3/mul"], "attr": {"align_corners": {"b": false}, "half_pixel_centers": {"b": true}, "T": {"type": "DT_FLOAT"}}}, {"name": "StatefulPartitionedCall/model_2/model_1/lambda_2/mul", "op": "Mul", "input": ["StatefulPartitionedCall/model_2/model_1/lambda_2/Const", "StatefulPartitionedCall/model_2/model_1/lambda_2/strided_slice"], "attr": {"T": {"type": "DT_INT32"}}}, {"name": "StatefulPartitionedCall/model_2/model_1/conv2d_mod_non_fused_3/mul_1", "op": "Mul", "input": ["StatefulPartitionedCall/model_2/model_1/conv2d_mod_non_fused_3/ExpandDims_1", "StatefulPartitionedCall/model_2/model_1/lambda_3/resize/ResizeBilinear"], "attr": {"T": {"type": "DT_FLOAT"}}}, {"name": "StatefulPartitionedCall/model_2/model_1/lambda_2/resize/ResizeBilinear", "op": "ResizeBilinear", "input": ["StatefulPartitionedCall/model_2/model_1/conv2d_mod_non_fused_2/Conv2D", "StatefulPartitionedCall/model_2/model_1/lambda_2/mul"], "attr": {"T": {"type": "DT_FLOAT"}, "align_corners": {"b": false}, "half_pixel_centers": {"b": true}}}, {"name": "StatefulPartitionedCall/model_2/model_1/conv2d_mod_non_fused_3/Conv2D", "op": "Conv2D", "input": ["StatefulPartitionedCall/model_2/model_1/conv2d_mod_non_fused_3/mul_1", "Func/StatefulPartitionedCall/input/_29"], "device": "/device:CPU:0", "attr": {"T": {"type": "DT_FLOAT"}, "data_format": {"s": "TkhXQw=="}, "strides": {"list": {"i": ["1", "1", "1", "1"]}}, "explicit_paddings": {"list": {}}, "use_cudnn_on_gpu": {"b": true}, "padding": {"s": "U0FNRQ=="}, "dilations": {"list": {"i": ["1", "1", "1", "1"]}}}}, {"name": "StatefulPartitionedCall/model_2/model_1/conv2d_mod_non_fused_3/truediv_1", "op": "RealDiv", "input": ["StatefulPartitionedCall/model_2/model_1/conv2d_mod_non_fused_3/Conv2D", "StatefulPartitionedCall/model_2/model_1/conv2d_mod_non_fused_3/Reshape"], "attr": {"T": {"type": "DT_FLOAT"}}}, {"name": "StatefulPartitionedCall/model_2/model_1/add_7/add", "op": "AddV2", "input": ["StatefulPartitionedCall/model_2/model_1/conv2d_mod_non_fused_3/truediv_1", "StatefulPartitionedCall/model_2/model_1/dense_13/BiasAdd"], "attr": {"T": {"type": "DT_FLOAT"}}}, {"name": "StatefulPartitionedCall/model_2/model_1/leaky_re_lu_16/LeakyRelu", "op": "LeakyRelu", "input": ["StatefulPartitionedCall/model_2/model_1/add_7/add"], "attr": {"T": {"type": "DT_FLOAT"}, "alpha": {"f": 0.2}}}, {"name": "StatefulPartitionedCall/model_2/model_1/conv2d_mod_non_fused_4/mul_1", "op": "Mul", "input": ["StatefulPartitionedCall/model_2/model_1/conv2d_mod_non_fused_4/ExpandDims_1", "StatefulPartitionedCall/model_2/model_1/leaky_re_lu_16/LeakyRelu"], "attr": {"T": {"type": "DT_FLOAT"}}}, {"name": "StatefulPartitionedCall/model_2/model_1/conv2d_mod_non_fused_4/Conv2D", "op": "Conv2D", "input": ["StatefulPartitionedCall/model_2/model_1/conv2d_mod_non_fused_4/mul_1", "Func/StatefulPartitionedCall/input/_34"], "device": "/device:CPU:0", "attr": {"dilations": {"list": {"i": ["1", "1", "1", "1"]}}, "T": {"type": "DT_FLOAT"}, "data_format": {"s": "TkhXQw=="}, "strides": {"list": {"i": ["1", "1", "1", "1"]}}, "explicit_paddings": {"list": {}}, "use_cudnn_on_gpu": {"b": true}, "padding": {"s": "U0FNRQ=="}}}, {"name": "StatefulPartitionedCall/model_2/model_1/conv2d_mod_non_fused_4/truediv_1", "op": "RealDiv", "input": ["StatefulPartitionedCall/model_2/model_1/conv2d_mod_non_fused_4/Conv2D", "StatefulPartitionedCall/model_2/model_1/conv2d_mod_non_fused_4/Reshape"], "attr": {"T": {"type": "DT_FLOAT"}}}, {"name": "StatefulPartitionedCall/model_2/model_1/add_8/add", "op": "AddV2", "input": ["StatefulPartitionedCall/model_2/model_1/conv2d_mod_non_fused_4/truediv_1", "StatefulPartitionedCall/model_2/model_1/dense_15/BiasAdd"], "attr": {"T": {"type": "DT_FLOAT"}}}, {"name": "StatefulPartitionedCall/model_2/model_1/leaky_re_lu_17/LeakyRelu", "op": "LeakyRelu", "input": ["StatefulPartitionedCall/model_2/model_1/add_8/add"], "attr": {"T": {"type": "DT_FLOAT"}, "alpha": {"f": 0.2}}}, {"name": "StatefulPartitionedCall/model_2/model_1/conv2d_mod_non_fused_5/mul_1", "op": "Mul", "input": ["StatefulPartitionedCall/model_2/model_1/conv2d_mod_non_fused_5/ExpandDims_1", "StatefulPartitionedCall/model_2/model_1/leaky_re_lu_17/LeakyRelu"], "attr": {"T": {"type": "DT_FLOAT"}}}, {"name": "StatefulPartitionedCall/model_2/model_1/lambda_6/Shape", "op": "Shape", "input": ["StatefulPartitionedCall/model_2/model_1/leaky_re_lu_17/LeakyRelu"], "attr": {"T": {"type": "DT_FLOAT"}, "out_type": {"type": "DT_INT32"}}}, {"name": "StatefulPartitionedCall/model_2/model_1/conv2d_mod_non_fused_5/Conv2D", "op": "Conv2D", "input": ["StatefulPartitionedCall/model_2/model_1/conv2d_mod_non_fused_5/mul_1", "Func/StatefulPartitionedCall/input/_80"], "device": "/device:CPU:0", "attr": {"dilations": {"list": {"i": ["1", "1", "1", "1"]}}, "T": {"type": "DT_FLOAT"}, "data_format": {"s": "TkhXQw=="}, "strides": {"list": {"i": ["1", "1", "1", "1"]}}, "use_cudnn_on_gpu": {"b": true}, "explicit_paddings": {"list": {}}, "padding": {"s": "U0FNRQ=="}}}, {"name": "StatefulPartitionedCall/model_2/model_1/lambda_6/strided_slice", "op": "StridedSlice", "input": ["StatefulPartitionedCall/model_2/model_1/lambda_6/Shape", "StatefulPartitionedCall/model_2/model_1/lambda_2/strided_slice/stack", "StatefulPartitionedCall/model_2/model_1/lambda_2/strided_slice/stack_1", "StatefulPartitionedCall/model_2/model_1/lambda_2/strided_slice/stack"], "attr": {"end_mask": {"i": "0"}, "T": {"type": "DT_INT32"}, "Index": {"type": "DT_INT32"}, "shrink_axis_mask": {"i": "0"}, "begin_mask": {"i": "0"}, "ellipsis_mask": {"i": "0"}, "new_axis_mask": {"i": "0"}}}, {"name": "StatefulPartitionedCall/model_2/model_1/lambda_5/Shape", "op": "Shape", "input": ["StatefulPartitionedCall/model_2/model_1/conv2d_mod_non_fused_5/Conv2D"], "attr": {"T": {"type": "DT_FLOAT"}, "out_type": {"type": "DT_INT32"}}}, {"name": "StatefulPartitionedCall/model_2/model_1/lambda_6/mul", "op": "Mul", "input": ["StatefulPartitionedCall/model_2/model_1/lambda_11/Const", "StatefulPartitionedCall/model_2/model_1/lambda_6/strided_slice"], "attr": {"T": {"type": "DT_INT32"}}}, {"name": "StatefulPartitionedCall/model_2/model_1/lambda_5/strided_slice", "op": "StridedSlice", "input": ["StatefulPartitionedCall/model_2/model_1/lambda_5/Shape", "StatefulPartitionedCall/model_2/model_1/lambda_2/strided_slice/stack", "StatefulPartitionedCall/model_2/model_1/lambda_2/strided_slice/stack_1", "StatefulPartitionedCall/model_2/model_1/lambda_2/strided_slice/stack"], "attr": {"end_mask": {"i": "0"}, "T": {"type": "DT_INT32"}, "Index": {"type": "DT_INT32"}, "shrink_axis_mask": {"i": "0"}, "begin_mask": {"i": "0"}, "ellipsis_mask": {"i": "0"}, "new_axis_mask": {"i": "0"}}}, {"name": "StatefulPartitionedCall/model_2/model_1/lambda_6/resize/ResizeBilinear", "op": "ResizeBilinear", "input": ["StatefulPartitionedCall/model_2/model_1/leaky_re_lu_17/LeakyRelu", "StatefulPartitionedCall/model_2/model_1/lambda_6/mul"], "attr": {"T": {"type": "DT_FLOAT"}, "align_corners": {"b": false}, "half_pixel_centers": {"b": true}}}, {"name": "StatefulPartitionedCall/model_2/model_1/lambda_5/mul", "op": "Mul", "input": ["StatefulPartitionedCall/model_2/model_1/lambda_5/Const", "StatefulPartitionedCall/model_2/model_1/lambda_5/strided_slice"], "attr": {"T": {"type": "DT_INT32"}}}, {"name": "StatefulPartitionedCall/model_2/model_1/conv2d_mod_non_fused_6/mul_1", "op": "Mul", "input": ["StatefulPartitionedCall/model_2/model_1/conv2d_mod_non_fused_6/ExpandDims_1", "StatefulPartitionedCall/model_2/model_1/lambda_6/resize/ResizeBilinear"], "attr": {"T": {"type": "DT_FLOAT"}}}, {"name": "StatefulPartitionedCall/model_2/model_1/lambda_5/resize/ResizeBilinear", "op": "ResizeBilinear", "input": ["StatefulPartitionedCall/model_2/model_1/conv2d_mod_non_fused_5/Conv2D", "StatefulPartitionedCall/model_2/model_1/lambda_5/mul"], "attr": {"align_corners": {"b": false}, "half_pixel_centers": {"b": true}, "T": {"type": "DT_FLOAT"}}}, {"name": "StatefulPartitionedCall/model_2/model_1/conv2d_mod_non_fused_6/Conv2D", "op": "Conv2D", "input": ["StatefulPartitionedCall/model_2/model_1/conv2d_mod_non_fused_6/mul_1", "Func/StatefulPartitionedCall/input/_39"], "device": "/device:CPU:0", "attr": {"padding": {"s": "U0FNRQ=="}, "dilations": {"list": {"i": ["1", "1", "1", "1"]}}, "T": {"type": "DT_FLOAT"}, "strides": {"list": {"i": ["1", "1", "1", "1"]}}, "data_format": {"s": "TkhXQw=="}, "use_cudnn_on_gpu": {"b": true}, "explicit_paddings": {"list": {}}}}, {"name": "StatefulPartitionedCall/model_2/model_1/add_15/add", "op": "AddV2", "input": ["StatefulPartitionedCall/model_2/model_1/lambda_2/resize/ResizeBilinear", "StatefulPartitionedCall/model_2/model_1/lambda_5/resize/ResizeBilinear"], "attr": {"T": {"type": "DT_FLOAT"}}}, {"name": "StatefulPartitionedCall/model_2/model_1/conv2d_mod_non_fused_6/truediv_1", "op": "RealDiv", "input": ["StatefulPartitionedCall/model_2/model_1/conv2d_mod_non_fused_6/Conv2D", "StatefulPartitionedCall/model_2/model_1/conv2d_mod_non_fused_6/Reshape"], "attr": {"T": {"type": "DT_FLOAT"}}}, {"name": "StatefulPartitionedCall/model_2/model_1/add_9/add", "op": "AddV2", "input": ["StatefulPartitionedCall/model_2/model_1/conv2d_mod_non_fused_6/truediv_1", "StatefulPartitionedCall/model_2/model_1/dense_18/BiasAdd"], "attr": {"T": {"type": "DT_FLOAT"}}}, {"name": "StatefulPartitionedCall/model_2/model_1/leaky_re_lu_18/LeakyRelu", "op": "LeakyRelu", "input": ["StatefulPartitionedCall/model_2/model_1/add_9/add"], "attr": {"T": {"type": "DT_FLOAT"}, "alpha": {"f": 0.2}}}, {"name": "StatefulPartitionedCall/model_2/model_1/conv2d_mod_non_fused_7/mul_1", "op": "Mul", "input": ["StatefulPartitionedCall/model_2/model_1/conv2d_mod_non_fused_7/ExpandDims_1", "StatefulPartitionedCall/model_2/model_1/leaky_re_lu_18/LeakyRelu"], "attr": {"T": {"type": "DT_FLOAT"}}}, {"name": "StatefulPartitionedCall/model_2/model_1/conv2d_mod_non_fused_7/Conv2D", "op": "Conv2D", "input": ["StatefulPartitionedCall/model_2/model_1/conv2d_mod_non_fused_7/mul_1", "Func/StatefulPartitionedCall/input/_44"], "device": "/device:CPU:0", "attr": {"dilations": {"list": {"i": ["1", "1", "1", "1"]}}, "T": {"type": "DT_FLOAT"}, "strides": {"list": {"i": ["1", "1", "1", "1"]}}, "data_format": {"s": "TkhXQw=="}, "explicit_paddings": {"list": {}}, "use_cudnn_on_gpu": {"b": true}, "padding": {"s": "U0FNRQ=="}}}, {"name": "StatefulPartitionedCall/model_2/model_1/conv2d_mod_non_fused_7/truediv_1", "op": "RealDiv", "input": ["StatefulPartitionedCall/model_2/model_1/conv2d_mod_non_fused_7/Conv2D", "StatefulPartitionedCall/model_2/model_1/conv2d_mod_non_fused_7/Reshape"], "attr": {"T": {"type": "DT_FLOAT"}}}, {"name": "StatefulPartitionedCall/model_2/model_1/add_10/add", "op": "AddV2", "input": ["StatefulPartitionedCall/model_2/model_1/conv2d_mod_non_fused_7/truediv_1", "StatefulPartitionedCall/model_2/model_1/dense_20/BiasAdd"], "attr": {"T": {"type": "DT_FLOAT"}}}, {"name": "StatefulPartitionedCall/model_2/model_1/leaky_re_lu_19/LeakyRelu", "op": "LeakyRelu", "input": ["StatefulPartitionedCall/model_2/model_1/add_10/add"], "attr": {"T": {"type": "DT_FLOAT"}, "alpha": {"f": 0.2}}}, {"name": "StatefulPartitionedCall/model_2/model_1/conv2d_mod_non_fused_8/mul_1", "op": "Mul", "input": ["StatefulPartitionedCall/model_2/model_1/conv2d_mod_non_fused_8/ExpandDims_1", "StatefulPartitionedCall/model_2/model_1/leaky_re_lu_19/LeakyRelu"], "attr": {"T": {"type": "DT_FLOAT"}}}, {"name": "StatefulPartitionedCall/model_2/model_1/lambda_9/Shape", "op": "Shape", "input": ["StatefulPartitionedCall/model_2/model_1/leaky_re_lu_19/LeakyRelu"], "attr": {"T": {"type": "DT_FLOAT"}, "out_type": {"type": "DT_INT32"}}}, {"name": "StatefulPartitionedCall/model_2/model_1/conv2d_mod_non_fused_8/Conv2D", "op": "Conv2D", "input": ["StatefulPartitionedCall/model_2/model_1/conv2d_mod_non_fused_8/mul_1", "Func/StatefulPartitionedCall/input/_79"], "device": "/device:CPU:0", "attr": {"padding": {"s": "U0FNRQ=="}, "dilations": {"list": {"i": ["1", "1", "1", "1"]}}, "T": {"type": "DT_FLOAT"}, "data_format": {"s": "TkhXQw=="}, "strides": {"list": {"i": ["1", "1", "1", "1"]}}, "use_cudnn_on_gpu": {"b": true}, "explicit_paddings": {"list": {}}}}, {"name": "StatefulPartitionedCall/model_2/model_1/lambda_9/strided_slice", "op": "StridedSlice", "input": ["StatefulPartitionedCall/model_2/model_1/lambda_9/Shape", "StatefulPartitionedCall/model_2/model_1/lambda_2/strided_slice/stack", "StatefulPartitionedCall/model_2/model_1/lambda_2/strided_slice/stack_1", "StatefulPartitionedCall/model_2/model_1/lambda_2/strided_slice/stack"], "attr": {"T": {"type": "DT_INT32"}, "Index": {"type": "DT_INT32"}, "shrink_axis_mask": {"i": "0"}, "begin_mask": {"i": "0"}, "ellipsis_mask": {"i": "0"}, "new_axis_mask": {"i": "0"}, "end_mask": {"i": "0"}}}, {"name": "StatefulPartitionedCall/model_2/model_1/lambda_8/Shape", "op": "Shape", "input": ["StatefulPartitionedCall/model_2/model_1/conv2d_mod_non_fused_8/Conv2D"], "attr": {"T": {"type": "DT_FLOAT"}, "out_type": {"type": "DT_INT32"}}}, {"name": "StatefulPartitionedCall/model_2/model_1/lambda_9/mul", "op": "Mul", "input": ["StatefulPartitionedCall/model_2/model_1/lambda_11/Const", "StatefulPartitionedCall/model_2/model_1/lambda_9/strided_slice"], "attr": {"T": {"type": "DT_INT32"}}}, {"name": "StatefulPartitionedCall/model_2/model_1/lambda_8/strided_slice", "op": "StridedSlice", "input": ["StatefulPartitionedCall/model_2/model_1/lambda_8/Shape", "StatefulPartitionedCall/model_2/model_1/lambda_2/strided_slice/stack", "StatefulPartitionedCall/model_2/model_1/lambda_2/strided_slice/stack_1", "StatefulPartitionedCall/model_2/model_1/lambda_2/strided_slice/stack"], "attr": {"end_mask": {"i": "0"}, "T": {"type": "DT_INT32"}, "Index": {"type": "DT_INT32"}, "shrink_axis_mask": {"i": "0"}, "ellipsis_mask": {"i": "0"}, "begin_mask": {"i": "0"}, "new_axis_mask": {"i": "0"}}}, {"name": "StatefulPartitionedCall/model_2/model_1/lambda_9/resize/ResizeBilinear", "op": "ResizeBilinear", "input": ["StatefulPartitionedCall/model_2/model_1/leaky_re_lu_19/LeakyRelu", "StatefulPartitionedCall/model_2/model_1/lambda_9/mul"], "attr": {"align_corners": {"b": false}, "half_pixel_centers": {"b": true}, "T": {"type": "DT_FLOAT"}}}, {"name": "StatefulPartitionedCall/model_2/model_1/lambda_8/mul", "op": "Mul", "input": ["StatefulPartitionedCall/model_2/model_1/lambda_8/Const", "StatefulPartitionedCall/model_2/model_1/lambda_8/strided_slice"], "attr": {"T": {"type": "DT_INT32"}}}, {"name": "StatefulPartitionedCall/model_2/model_1/conv2d_mod_non_fused_9/mul_1", "op": "Mul", "input": ["StatefulPartitionedCall/model_2/model_1/conv2d_mod_non_fused_9/ExpandDims_1", "StatefulPartitionedCall/model_2/model_1/lambda_9/resize/ResizeBilinear"], "attr": {"T": {"type": "DT_FLOAT"}}}, {"name": "StatefulPartitionedCall/model_2/model_1/lambda_8/resize/ResizeBilinear", "op": "ResizeBilinear", "input": ["StatefulPartitionedCall/model_2/model_1/conv2d_mod_non_fused_8/Conv2D", "StatefulPartitionedCall/model_2/model_1/lambda_8/mul"], "attr": {"align_corners": {"b": false}, "half_pixel_centers": {"b": true}, "T": {"type": "DT_FLOAT"}}}, {"name": "StatefulPartitionedCall/model_2/model_1/conv2d_mod_non_fused_9/Conv2D", "op": "Conv2D", "input": ["StatefulPartitionedCall/model_2/model_1/conv2d_mod_non_fused_9/mul_1", "Func/StatefulPartitionedCall/input/_49"], "device": "/device:CPU:0", "attr": {"dilations": {"list": {"i": ["1", "1", "1", "1"]}}, "T": {"type": "DT_FLOAT"}, "data_format": {"s": "TkhXQw=="}, "strides": {"list": {"i": ["1", "1", "1", "1"]}}, "explicit_paddings": {"list": {}}, "use_cudnn_on_gpu": {"b": true}, "padding": {"s": "U0FNRQ=="}}}, {"name": "StatefulPartitionedCall/model_2/model_1/add_15/add_1", "op": "AddV2", "input": ["StatefulPartitionedCall/model_2/model_1/add_15/add", "StatefulPartitionedCall/model_2/model_1/lambda_8/resize/ResizeBilinear"], "attr": {"T": {"type": "DT_FLOAT"}}}, {"name": "StatefulPartitionedCall/model_2/model_1/conv2d_mod_non_fused_9/truediv_1", "op": "RealDiv", "input": ["StatefulPartitionedCall/model_2/model_1/conv2d_mod_non_fused_9/Conv2D", "StatefulPartitionedCall/model_2/model_1/conv2d_mod_non_fused_9/Reshape"], "attr": {"T": {"type": "DT_FLOAT"}}}, {"name": "StatefulPartitionedCall/model_2/model_1/add_11/add", "op": "AddV2", "input": ["StatefulPartitionedCall/model_2/model_1/conv2d_mod_non_fused_9/truediv_1", "StatefulPartitionedCall/model_2/model_1/dense_23/BiasAdd"], "attr": {"T": {"type": "DT_FLOAT"}}}, {"name": "StatefulPartitionedCall/model_2/model_1/leaky_re_lu_20/LeakyRelu", "op": "LeakyRelu", "input": ["StatefulPartitionedCall/model_2/model_1/add_11/add"], "attr": {"alpha": {"f": 0.2}, "T": {"type": "DT_FLOAT"}}}, {"name": "StatefulPartitionedCall/model_2/model_1/conv2d_mod_non_fused_10/mul_1", "op": "Mul", "input": ["StatefulPartitionedCall/model_2/model_1/conv2d_mod_non_fused_10/ExpandDims_1", "StatefulPartitionedCall/model_2/model_1/leaky_re_lu_20/LeakyRelu"], "attr": {"T": {"type": "DT_FLOAT"}}}, {"name": "StatefulPartitionedCall/model_2/model_1/conv2d_mod_non_fused_10/Conv2D", "op": "Conv2D", "input": ["StatefulPartitionedCall/model_2/model_1/conv2d_mod_non_fused_10/mul_1", "Func/StatefulPartitionedCall/input/_54"], "device": "/device:CPU:0", "attr": {"dilations": {"list": {"i": ["1", "1", "1", "1"]}}, "T": {"type": "DT_FLOAT"}, "data_format": {"s": "TkhXQw=="}, "strides": {"list": {"i": ["1", "1", "1", "1"]}}, "explicit_paddings": {"list": {}}, "use_cudnn_on_gpu": {"b": true}, "padding": {"s": "U0FNRQ=="}}}, {"name": "StatefulPartitionedCall/model_2/model_1/conv2d_mod_non_fused_10/truediv_1", "op": "RealDiv", "input": ["StatefulPartitionedCall/model_2/model_1/conv2d_mod_non_fused_10/Conv2D", "StatefulPartitionedCall/model_2/model_1/conv2d_mod_non_fused_10/Reshape"], "attr": {"T": {"type": "DT_FLOAT"}}}, {"name": "StatefulPartitionedCall/model_2/model_1/add_12/add", "op": "AddV2", "input": ["StatefulPartitionedCall/model_2/model_1/conv2d_mod_non_fused_10/truediv_1", "StatefulPartitionedCall/model_2/model_1/dense_25/BiasAdd"], "attr": {"T": {"type": "DT_FLOAT"}}}, {"name": "StatefulPartitionedCall/model_2/model_1/leaky_re_lu_21/LeakyRelu", "op": "LeakyRelu", "input": ["StatefulPartitionedCall/model_2/model_1/add_12/add"], "attr": {"alpha": {"f": 0.2}, "T": {"type": "DT_FLOAT"}}}, {"name": "StatefulPartitionedCall/model_2/model_1/conv2d_mod_non_fused_11/mul_1", "op": "Mul", "input": ["StatefulPartitionedCall/model_2/model_1/conv2d_mod_non_fused_11/ExpandDims_1", "StatefulPartitionedCall/model_2/model_1/leaky_re_lu_21/LeakyRelu"], "attr": {"T": {"type": "DT_FLOAT"}}}, {"name": "StatefulPartitionedCall/model_2/model_1/lambda_12/Shape", "op": "Shape", "input": ["StatefulPartitionedCall/model_2/model_1/leaky_re_lu_21/LeakyRelu"], "attr": {"T": {"type": "DT_FLOAT"}, "out_type": {"type": "DT_INT32"}}}, {"name": "StatefulPartitionedCall/model_2/model_1/conv2d_mod_non_fused_11/Conv2D", "op": "Conv2D", "input": ["StatefulPartitionedCall/model_2/model_1/conv2d_mod_non_fused_11/mul_1", "Func/StatefulPartitionedCall/input/_78"], "device": "/device:CPU:0", "attr": {"padding": {"s": "U0FNRQ=="}, "dilations": {"list": {"i": ["1", "1", "1", "1"]}}, "T": {"type": "DT_FLOAT"}, "data_format": {"s": "TkhXQw=="}, "strides": {"list": {"i": ["1", "1", "1", "1"]}}, "use_cudnn_on_gpu": {"b": true}, "explicit_paddings": {"list": {}}}}, {"name": "StatefulPartitionedCall/model_2/model_1/lambda_12/strided_slice", "op": "StridedSlice", "input": ["StatefulPartitionedCall/model_2/model_1/lambda_12/Shape", "StatefulPartitionedCall/model_2/model_1/lambda_2/strided_slice/stack", "StatefulPartitionedCall/model_2/model_1/lambda_2/strided_slice/stack_1", "StatefulPartitionedCall/model_2/model_1/lambda_2/strided_slice/stack"], "attr": {"shrink_axis_mask": {"i": "0"}, "begin_mask": {"i": "0"}, "ellipsis_mask": {"i": "0"}, "new_axis_mask": {"i": "0"}, "end_mask": {"i": "0"}, "T": {"type": "DT_INT32"}, "Index": {"type": "DT_INT32"}}}, {"name": "StatefulPartitionedCall/model_2/model_1/lambda_11/Shape", "op": "Shape", "input": ["StatefulPartitionedCall/model_2/model_1/conv2d_mod_non_fused_11/Conv2D"], "attr": {"T": {"type": "DT_FLOAT"}, "out_type": {"type": "DT_INT32"}}}, {"name": "StatefulPartitionedCall/model_2/model_1/lambda_12/mul", "op": "Mul", "input": ["StatefulPartitionedCall/model_2/model_1/lambda_11/Const", "StatefulPartitionedCall/model_2/model_1/lambda_12/strided_slice"], "attr": {"T": {"type": "DT_INT32"}}}, {"name": "StatefulPartitionedCall/model_2/model_1/lambda_11/strided_slice", "op": "StridedSlice", "input": ["StatefulPartitionedCall/model_2/model_1/lambda_11/Shape", "StatefulPartitionedCall/model_2/model_1/lambda_2/strided_slice/stack", "StatefulPartitionedCall/model_2/model_1/lambda_2/strided_slice/stack_1", "StatefulPartitionedCall/model_2/model_1/lambda_2/strided_slice/stack"], "attr": {"shrink_axis_mask": {"i": "0"}, "ellipsis_mask": {"i": "0"}, "begin_mask": {"i": "0"}, "new_axis_mask": {"i": "0"}, "end_mask": {"i": "0"}, "Index": {"type": "DT_INT32"}, "T": {"type": "DT_INT32"}}}, {"name": "StatefulPartitionedCall/model_2/model_1/lambda_12/resize/ResizeBilinear", "op": "ResizeBilinear", "input": ["StatefulPartitionedCall/model_2/model_1/leaky_re_lu_21/LeakyRelu", "StatefulPartitionedCall/model_2/model_1/lambda_12/mul"], "attr": {"T": {"type": "DT_FLOAT"}, "align_corners": {"b": false}, "half_pixel_centers": {"b": true}}}, {"name": "StatefulPartitionedCall/model_2/model_1/lambda_11/mul", "op": "Mul", "input": ["StatefulPartitionedCall/model_2/model_1/lambda_11/Const", "StatefulPartitionedCall/model_2/model_1/lambda_11/strided_slice"], "attr": {"T": {"type": "DT_INT32"}}}, {"name": "StatefulPartitionedCall/model_2/model_1/conv2d_mod_non_fused_12/mul_1", "op": "Mul", "input": ["StatefulPartitionedCall/model_2/model_1/conv2d_mod_non_fused_12/ExpandDims_1", "StatefulPartitionedCall/model_2/model_1/lambda_12/resize/ResizeBilinear"], "attr": {"T": {"type": "DT_FLOAT"}}}, {"name": "StatefulPartitionedCall/model_2/model_1/lambda_11/resize/ResizeBilinear", "op": "ResizeBilinear", "input": ["StatefulPartitionedCall/model_2/model_1/conv2d_mod_non_fused_11/Conv2D", "StatefulPartitionedCall/model_2/model_1/lambda_11/mul"], "attr": {"align_corners": {"b": false}, "half_pixel_centers": {"b": true}, "T": {"type": "DT_FLOAT"}}}, {"name": "StatefulPartitionedCall/model_2/model_1/conv2d_mod_non_fused_12/Conv2D", "op": "Conv2D", "input": ["StatefulPartitionedCall/model_2/model_1/conv2d_mod_non_fused_12/mul_1", "Func/StatefulPartitionedCall/input/_59"], "device": "/device:CPU:0", "attr": {"T": {"type": "DT_FLOAT"}, "data_format": {"s": "TkhXQw=="}, "strides": {"list": {"i": ["1", "1", "1", "1"]}}, "use_cudnn_on_gpu": {"b": true}, "explicit_paddings": {"list": {}}, "padding": {"s": "U0FNRQ=="}, "dilations": {"list": {"i": ["1", "1", "1", "1"]}}}}, {"name": "StatefulPartitionedCall/model_2/model_1/add_15/add_2", "op": "AddV2", "input": ["StatefulPartitionedCall/model_2/model_1/add_15/add_1", "StatefulPartitionedCall/model_2/model_1/lambda_11/resize/ResizeBilinear"], "attr": {"T": {"type": "DT_FLOAT"}}}, {"name": "StatefulPartitionedCall/model_2/model_1/conv2d_mod_non_fused_12/truediv_1", "op": "RealDiv", "input": ["StatefulPartitionedCall/model_2/model_1/conv2d_mod_non_fused_12/Conv2D", "StatefulPartitionedCall/model_2/model_1/conv2d_mod_non_fused_12/Reshape"], "attr": {"T": {"type": "DT_FLOAT"}}}, {"name": "StatefulPartitionedCall/model_2/model_1/add_13/add", "op": "AddV2", "input": ["StatefulPartitionedCall/model_2/model_1/conv2d_mod_non_fused_12/truediv_1", "StatefulPartitionedCall/model_2/model_1/dense_28/BiasAdd"], "attr": {"T": {"type": "DT_FLOAT"}}}, {"name": "StatefulPartitionedCall/model_2/model_1/leaky_re_lu_22/LeakyRelu", "op": "LeakyRelu", "input": ["StatefulPartitionedCall/model_2/model_1/add_13/add"], "attr": {"T": {"type": "DT_FLOAT"}, "alpha": {"f": 0.2}}}, {"name": "StatefulPartitionedCall/model_2/model_1/conv2d_mod_non_fused_13/mul_1", "op": "Mul", "input": ["StatefulPartitionedCall/model_2/model_1/conv2d_mod_non_fused_13/ExpandDims_1", "StatefulPartitionedCall/model_2/model_1/leaky_re_lu_22/LeakyRelu"], "attr": {"T": {"type": "DT_FLOAT"}}}, {"name": "StatefulPartitionedCall/model_2/model_1/conv2d_mod_non_fused_13/Conv2D", "op": "Conv2D", "input": ["StatefulPartitionedCall/model_2/model_1/conv2d_mod_non_fused_13/mul_1", "Func/StatefulPartitionedCall/input/_64"], "device": "/device:CPU:0", "attr": {"dilations": {"list": {"i": ["1", "1", "1", "1"]}}, "T": {"type": "DT_FLOAT"}, "strides": {"list": {"i": ["1", "1", "1", "1"]}}, "data_format": {"s": "TkhXQw=="}, "use_cudnn_on_gpu": {"b": true}, "explicit_paddings": {"list": {}}, "padding": {"s": "U0FNRQ=="}}}, {"name": "StatefulPartitionedCall/model_2/model_1/conv2d_mod_non_fused_13/truediv_1", "op": "RealDiv", "input": ["StatefulPartitionedCall/model_2/model_1/conv2d_mod_non_fused_13/Conv2D", "StatefulPartitionedCall/model_2/model_1/conv2d_mod_non_fused_13/Reshape"], "attr": {"T": {"type": "DT_FLOAT"}}}, {"name": "StatefulPartitionedCall/model_2/model_1/add_14/add", "op": "AddV2", "input": ["StatefulPartitionedCall/model_2/model_1/conv2d_mod_non_fused_13/truediv_1", "StatefulPartitionedCall/model_2/model_1/dense_30/BiasAdd"], "attr": {"T": {"type": "DT_FLOAT"}}}, {"name": "StatefulPartitionedCall/model_2/model_1/leaky_re_lu_23/LeakyRelu", "op": "LeakyRelu", "input": ["StatefulPartitionedCall/model_2/model_1/add_14/add"], "attr": {"T": {"type": "DT_FLOAT"}, "alpha": {"f": 0.2}}}, {"name": "StatefulPartitionedCall/model_2/model_1/conv2d_mod_non_fused_14/mul_1", "op": "Mul", "input": ["StatefulPartitionedCall/model_2/model_1/conv2d_mod_non_fused_14/ExpandDims_1", "StatefulPartitionedCall/model_2/model_1/leaky_re_lu_23/LeakyRelu"], "attr": {"T": {"type": "DT_FLOAT"}}}, {"name": "StatefulPartitionedCall/model_2/model_1/conv2d_mod_non_fused_14/Conv2D", "op": "Conv2D", "input": ["StatefulPartitionedCall/model_2/model_1/conv2d_mod_non_fused_14/mul_1", "Func/StatefulPartitionedCall/input/_77"], "device": "/device:CPU:0", "attr": {"dilations": {"list": {"i": ["1", "1", "1", "1"]}}, "T": {"type": "DT_FLOAT"}, "data_format": {"s": "TkhXQw=="}, "strides": {"list": {"i": ["1", "1", "1", "1"]}}, "explicit_paddings": {"list": {}}, "use_cudnn_on_gpu": {"b": true}, "padding": {"s": "U0FNRQ=="}}}, {"name": "StatefulPartitionedCall/model_2/model_1/lambda_14/Shape", "op": "Shape", "input": ["StatefulPartitionedCall/model_2/model_1/conv2d_mod_non_fused_14/Conv2D"], "attr": {"T": {"type": "DT_FLOAT"}, "out_type": {"type": "DT_INT32"}}}, {"name": "StatefulPartitionedCall/model_2/model_1/lambda_14/strided_slice", "op": "StridedSlice", "input": ["StatefulPartitionedCall/model_2/model_1/lambda_14/Shape", "StatefulPartitionedCall/model_2/model_1/lambda_2/strided_slice/stack", "StatefulPartitionedCall/model_2/model_1/lambda_2/strided_slice/stack_1", "StatefulPartitionedCall/model_2/model_1/lambda_2/strided_slice/stack"], "attr": {"shrink_axis_mask": {"i": "0"}, "ellipsis_mask": {"i": "0"}, "begin_mask": {"i": "0"}, "new_axis_mask": {"i": "0"}, "end_mask": {"i": "0"}, "T": {"type": "DT_INT32"}, "Index": {"type": "DT_INT32"}}}, {"name": "StatefulPartitionedCall/model_2/model_1/lambda_14/resize/ResizeBilinear", "op": "ResizeBilinear", "input": ["StatefulPartitionedCall/model_2/model_1/conv2d_mod_non_fused_14/Conv2D", "StatefulPartitionedCall/model_2/model_1/lambda_14/strided_slice"], "attr": {"align_corners": {"b": false}, "half_pixel_centers": {"b": true}, "T": {"type": "DT_FLOAT"}}}, {"name": "StatefulPartitionedCall/model_2/model_1/add_15/add_3", "op": "AddV2", "input": ["StatefulPartitionedCall/model_2/model_1/add_15/add_2", "StatefulPartitionedCall/model_2/model_1/lambda_14/resize/ResizeBilinear"], "attr": {"T": {"type": "DT_FLOAT"}}}, {"name": "StatefulPartitionedCall/model_2/model_1/lambda_15/truediv", "op": "Mul", "input": ["StatefulPartitionedCall/model_2/model_1/add_15/add_3", "StatefulPartitionedCall/model_2/model_1/lambda_15/add/y"], "attr": {"T": {"type": "DT_FLOAT"}}}, {"name": "StatefulPartitionedCall/model_2/model_1/lambda_15/add", "op": "AddV2", "input": ["StatefulPartitionedCall/model_2/model_1/lambda_15/add/y", "StatefulPartitionedCall/model_2/model_1/lambda_15/truediv"], "attr": {"T": {"type": "DT_FLOAT"}}}, {"name": "Identity", "op": "Identity", "input": ["StatefulPartitionedCall/model_2/model_1/lambda_15/add"], "attr": {"T": {"type": "DT_FLOAT"}}}], "library": {}, "versions": {"producer": 175}}, "weightsManifest": [{"paths": ["group1-shard1of5.bin", "group1-shard2of5.bin", "group1-shard3of5.bin", "group1-shard4of5.bin", "group1-shard5of5.bin"], "weights": [{"name": "StatefulPartitionedCall/model_2/model_1/lambda_2/Const", "shape": [2], "dtype": "int32"}, {"name": "Func/StatefulPartitionedCall/input/_75", "shape": [512, 192], "dtype": "float32"}, {"name": "Func/StatefulPartitionedCall/input/_76", "shape": [192], "dtype": "float32"}, {"name": "Func/StatefulPartitionedCall/input/_81", "shape": [1, 1, 192, 3], "dtype": "float32"}, {"name": "StatefulPartitionedCall/model_2/model_1/lambda_5/Const", "shape": [2], "dtype": "int32"}, {"name": "Func/StatefulPartitionedCall/input/_73", "shape": [512, 144], "dtype": "float32"}, {"name": "Func/StatefulPartitionedCall/input/_74", "shape": [144], "dtype": "float32"}, {"name": "Func/StatefulPartitionedCall/input/_80", "shape": [1, 1, 144, 3], "dtype": "float32"}, {"name": "StatefulPartitionedCall/model_2/model_1/lambda_8/Const", "shape": [2], "dtype": "int32"}, {"name": "Func/StatefulPartitionedCall/input/_71", "shape": [512, 96], "dtype": "float32"}, {"name": "Func/StatefulPartitionedCall/input/_72", "shape": [96], "dtype": "float32"}, {"name": "Func/StatefulPartitionedCall/input/_79", "shape": [1, 1, 96, 3], "dtype": "float32"}, {"name": "Func/StatefulPartitionedCall/input/_69", "shape": [512, 48], "dtype": "float32"}, {"name": "Func/StatefulPartitionedCall/input/_70", "shape": [48], "dtype": "float32"}, {"name": "Func/StatefulPartitionedCall/input/_78", "shape": [1, 1, 48, 3], "dtype": "float32"}, {"name": "Func/StatefulPartitionedCall/input/_67", "shape": [512, 24], "dtype": "float32"}, {"name": "Func/StatefulPartitionedCall/input/_68", "shape": [24], "dtype": "float32"}, {"name": "StatefulPartitionedCall/model_2/model_1/lambda_11/Const", "shape": [2], "dtype": "int32"}, {"name": "StatefulPartitionedCall/model_2/model_1/lambda/strided_slice/stack", "shape": [2], "dtype": "int32"}, {"name": "StatefulPartitionedCall/model_2/model_1/lambda/strided_slice/stack_1", "shape": [2], "dtype": "int32"}, {"name": "StatefulPartitionedCall/model_2/model_1/lambda/strided_slice/stack_2", "shape": [2], "dtype": "int32"}, {"name": "Func/StatefulPartitionedCall/input/_15", "shape": [1, 1536], "dtype": "float32"}, {"name": "Func/StatefulPartitionedCall/input/_16", "shape": [1536], "dtype": "float32"}, {"name": "StatefulPartitionedCall/model_2/model_1/reshape/Reshape/shape/1", "shape": [], "dtype": "int32"}, {"name": "StatefulPartitionedCall/model_2/model_1/reshape/Reshape/shape/3", "shape": [], "dtype": "int32"}, {"name": "Func/StatefulPartitionedCall/input/_19", "shape": [3, 3, 96, 192], "dtype": "float32"}, {"name": "StatefulPartitionedCall/model_2/model_1/conv2d_mod_non_fused/ExpandDims_2", "shape": [1, 3, 3, 96, 192], "dtype": "float32"}, {"name": "Func/StatefulPartitionedCall/input/_17", "shape": [512, 96], "dtype": "float32"}, {"name": "Func/StatefulPartitionedCall/input/_18", "shape": [96], "dtype": "float32"}, {"name": "Func/StatefulPartitionedCall/input/_20", "shape": [1, 192], "dtype": "float32"}, {"name": "Func/StatefulPartitionedCall/input/_21", "shape": [192], "dtype": "float32"}, {"name": "Func/StatefulPartitionedCall/input/_24", "shape": [3, 3, 192, 192], "dtype": "float32"}, {"name": "StatefulPartitionedCall/model_2/model_1/conv2d_mod_non_fused_1/ExpandDims_2", "shape": [1, 3, 3, 192, 192], "dtype": "float32"}, {"name": "Func/StatefulPartitionedCall/input/_22", "shape": [512, 192], "dtype": "float32"}, {"name": "Func/StatefulPartitionedCall/input/_23", "shape": [192], "dtype": "float32"}, {"name": "StatefulPartitionedCall/model_2/model_1/conv2d_mod_non_fused/Reshape/shape", "shape": [4], "dtype": "int32"}, {"name": "Func/StatefulPartitionedCall/input/_25", "shape": [1, 192], "dtype": "float32"}, {"name": "StatefulPartitionedCall/model_2/model_1/lambda_1/strided_slice/stack_1", "shape": [4], "dtype": "int32"}, {"name": "StatefulPartitionedCall/model_2/model_1/dense_8/Tensordot/Const_2", "shape": [1], "dtype": "int32"}, {"name": "Func/StatefulPartitionedCall/input/_26", "shape": [192], "dtype": "float32"}, {"name": "Func/StatefulPartitionedCall/input/_29", "shape": [3, 3, 192, 144], "dtype": "float32"}, {"name": "StatefulPartitionedCall/model_2/model_1/conv2d_mod_non_fused_3/ExpandDims_2", "shape": [1, 3, 3, 192, 144], "dtype": "float32"}, {"name": "Func/StatefulPartitionedCall/input/_27", "shape": [512, 192], "dtype": "float32"}, {"name": "Func/StatefulPartitionedCall/input/_28", "shape": [192], "dtype": "float32"}, {"name": "Func/StatefulPartitionedCall/input/_30", "shape": [1, 144], "dtype": "float32"}, {"name": "Func/StatefulPartitionedCall/input/_31", "shape": [144], "dtype": "float32"}, {"name": "Func/StatefulPartitionedCall/input/_34", "shape": [3, 3, 144, 144], "dtype": "float32"}, {"name": "StatefulPartitionedCall/model_2/model_1/conv2d_mod_non_fused_4/ExpandDims_2", "shape": [1, 3, 3, 144, 144], "dtype": "float32"}, {"name": "Func/StatefulPartitionedCall/input/_32", "shape": [512, 144], "dtype": "float32"}, {"name": "Func/StatefulPartitionedCall/input/_33", "shape": [144], "dtype": "float32"}, {"name": "StatefulPartitionedCall/model_2/model_1/conv2d_mod_non_fused_3/Reshape/shape", "shape": [4], "dtype": "int32"}, {"name": "Func/StatefulPartitionedCall/input/_35", "shape": [1, 144], "dtype": "float32"}, {"name": "StatefulPartitionedCall/model_2/model_1/lambda_4/strided_slice/stack_1", "shape": [4], "dtype": "int32"}, {"name": "StatefulPartitionedCall/model_2/model_1/dense_13/Tensordot/Const_2", "shape": [1], "dtype": "int32"}, {"name": "Func/StatefulPartitionedCall/input/_36", "shape": [144], "dtype": "float32"}, {"name": "Func/StatefulPartitionedCall/input/_39", "shape": [3, 3, 144, 96], "dtype": "float32"}, {"name": "StatefulPartitionedCall/model_2/model_1/conv2d_mod_non_fused_6/ExpandDims_2", "shape": [1, 3, 3, 144, 96], "dtype": "float32"}, {"name": "Func/StatefulPartitionedCall/input/_37", "shape": [512, 144], "dtype": "float32"}, {"name": "Func/StatefulPartitionedCall/input/_38", "shape": [144], "dtype": "float32"}, {"name": "Func/StatefulPartitionedCall/input/_40", "shape": [1, 96], "dtype": "float32"}, {"name": "Func/StatefulPartitionedCall/input/_41", "shape": [96], "dtype": "float32"}, {"name": "Func/StatefulPartitionedCall/input/_44", "shape": [3, 3, 96, 96], "dtype": "float32"}, {"name": "StatefulPartitionedCall/model_2/model_1/conv2d_mod_non_fused_7/ExpandDims_2", "shape": [1, 3, 3, 96, 96], "dtype": "float32"}, {"name": "Func/StatefulPartitionedCall/input/_42", "shape": [512, 96], "dtype": "float32"}, {"name": "Func/StatefulPartitionedCall/input/_43", "shape": [96], "dtype": "float32"}, {"name": "StatefulPartitionedCall/model_2/model_1/conv2d_mod_non_fused_6/Reshape/shape", "shape": [4], "dtype": "int32"}, {"name": "Func/StatefulPartitionedCall/input/_45", "shape": [1, 96], "dtype": "float32"}, {"name": "StatefulPartitionedCall/model_2/model_1/lambda_7/strided_slice/stack_1", "shape": [4], "dtype": "int32"}, {"name": "StatefulPartitionedCall/model_2/model_1/dense_18/Tensordot/Const_2", "shape": [1], "dtype": "int32"}, {"name": "Func/StatefulPartitionedCall/input/_46", "shape": [96], "dtype": "float32"}, {"name": "Func/StatefulPartitionedCall/input/_49", "shape": [3, 3, 96, 48], "dtype": "float32"}, {"name": "StatefulPartitionedCall/model_2/model_1/conv2d_mod_non_fused_9/ExpandDims_2", "shape": [1, 3, 3, 96, 48], "dtype": "float32"}, {"name": "Func/StatefulPartitionedCall/input/_47", "shape": [512, 96], "dtype": "float32"}, {"name": "Func/StatefulPartitionedCall/input/_48", "shape": [96], "dtype": "float32"}, {"name": "Func/StatefulPartitionedCall/input/_50", "shape": [1, 48], "dtype": "float32"}, {"name": "Func/StatefulPartitionedCall/input/_51", "shape": [48], "dtype": "float32"}, {"name": "Func/StatefulPartitionedCall/input/_54", "shape": [3, 3, 48, 48], "dtype": "float32"}, {"name": "StatefulPartitionedCall/model_2/model_1/conv2d_mod_non_fused_10/ExpandDims_2", "shape": [1, 3, 3, 48, 48], "dtype": "float32"}, {"name": "Func/StatefulPartitionedCall/input/_52", "shape": [512, 48], "dtype": "float32"}, {"name": "Func/StatefulPartitionedCall/input/_53", "shape": [48], "dtype": "float32"}, {"name": "StatefulPartitionedCall/model_2/model_1/conv2d_mod_non_fused_9/Reshape/shape", "shape": [4], "dtype": "int32"}, {"name": "Func/StatefulPartitionedCall/input/_55", "shape": [1, 48], "dtype": "float32"}, {"name": "StatefulPartitionedCall/model_2/model_1/lambda_10/strided_slice/stack_1", "shape": [4], "dtype": "int32"}, {"name": "StatefulPartitionedCall/model_2/model_1/dense_23/Tensordot/Const_2", "shape": [1], "dtype": "int32"}, {"name": "Func/StatefulPartitionedCall/input/_56", "shape": [48], "dtype": "float32"}, {"name": "Func/StatefulPartitionedCall/input/_59", "shape": [3, 3, 48, 24], "dtype": "float32"}, {"name": "StatefulPartitionedCall/model_2/model_1/conv2d_mod_non_fused_12/ExpandDims_2", "shape": [1, 3, 3, 48, 24], "dtype": "float32"}, {"name": "Func/StatefulPartitionedCall/input/_57", "shape": [512, 48], "dtype": "float32"}, {"name": "Func/StatefulPartitionedCall/input/_58", "shape": [48], "dtype": "float32"}, {"name": "Func/StatefulPartitionedCall/input/_60", "shape": [1, 24], "dtype": "float32"}, {"name": "Func/StatefulPartitionedCall/input/_61", "shape": [24], "dtype": "float32"}, {"name": "Func/StatefulPartitionedCall/input/_64", "shape": [3, 3, 24, 24], "dtype": "float32"}, {"name": "StatefulPartitionedCall/model_2/model_1/conv2d_mod_non_fused/add_1/y", "shape": [], "dtype": "float32"}, {"name": "StatefulPartitionedCall/model_2/model_1/conv2d_mod_non_fused_13/ExpandDims_2", "shape": [1, 3, 3, 24, 24], "dtype": "float32"}, {"name": "StatefulPartitionedCall/model_2/model_1/conv2d_mod_non_fused_2/add/y", "shape": [], "dtype": "float32"}, {"name": "Func/StatefulPartitionedCall/input/_7", "shape": [512, 512], "dtype": "float32"}, {"name": "Func/StatefulPartitionedCall/input/_8", "shape": [512], "dtype": "float32"}, {"name": "Func/StatefulPartitionedCall/input/_9", "shape": [512, 512], "dtype": "float32"}, {"name": "Func/StatefulPartitionedCall/input/_10", "shape": [512], "dtype": "float32"}, {"name": "Func/StatefulPartitionedCall/input/_11", "shape": [512, 512], "dtype": "float32"}, {"name": "Func/StatefulPartitionedCall/input/_12", "shape": [512], "dtype": "float32"}, {"name": "Func/StatefulPartitionedCall/input/_13", "shape": [512, 512], "dtype": "float32"}, {"name": "Func/StatefulPartitionedCall/input/_14", "shape": [512], "dtype": "float32"}, {"name": "StatefulPartitionedCall/model_2/model_1/lambda_15/add/y", "shape": [], "dtype": "float32"}, {"name": "Func/StatefulPartitionedCall/input/_62", "shape": [512, 24], "dtype": "float32"}, {"name": "Func/StatefulPartitionedCall/input/_63", "shape": [24], "dtype": "float32"}, {"name": "StatefulPartitionedCall/model_2/model_1/conv2d_mod_non_fused_2/ExpandDims/dim", "shape": [], "dtype": "int32"}, {"name": "StatefulPartitionedCall/model_2/model_1/conv2d_mod_non_fused/ExpandDims_3/dim", "shape": [], "dtype": "int32"}, {"name": "StatefulPartitionedCall/model_2/model_1/conv2d_mod_non_fused/Sum/reduction_indices", "shape": [3], "dtype": "int32"}, {"name": "StatefulPartitionedCall/model_2/model_1/conv2d_mod_non_fused/Const_1", "shape": [], "dtype": "float32"}, {"name": "StatefulPartitionedCall/model_2/model_1/lambda/mul/y", "shape": [], "dtype": "float32"}, {"name": "StatefulPartitionedCall/model_2/model_1/conv2d_mod_non_fused_12/Reshape/shape", "shape": [4], "dtype": "int32"}, {"name": "StatefulPartitionedCall/model_2/model_1/reshape/strided_slice/stack", "shape": [1], "dtype": "int32"}, {"name": "Func/StatefulPartitionedCall/input/_65", "shape": [1, 24], "dtype": "float32"}, {"name": "StatefulPartitionedCall/model_2/model_1/lambda_1/strided_slice/stack", "shape": [4], "dtype": "int32"}, {"name": "StatefulPartitionedCall/model_2/model_1/lambda_13/strided_slice/stack_1", "shape": [4], "dtype": "int32"}, {"name": "StatefulPartitionedCall/model_2/model_1/lambda_1/strided_slice/stack_2", "shape": [4], "dtype": "int32"}, {"name": "StatefulPartitionedCall/model_2/model_1/dense_8/Tensordot/free", "shape": [3], "dtype": "int32"}, {"name": "StatefulPartitionedCall/model_2/model_1/dense_28/Tensordot/Const_2", "shape": [1], "dtype": "int32"}, {"name": "StatefulPartitionedCall/model_2/model_1/dense_8/Tensordot/concat/axis", "shape": [], "dtype": "int32"}, {"name": "Func/StatefulPartitionedCall/input/_66", "shape": [24], "dtype": "float32"}, {"name": "Func/StatefulPartitionedCall/input/_77", "shape": [1, 1, 24, 3], "dtype": "float32"}, {"name": "StatefulPartitionedCall/model_2/model_1/lambda_2/strided_slice/stack_1", "shape": [1], "dtype": "int32"}, {"name": "StatefulPartitionedCall/model_2/model_1/lambda_2/strided_slice/stack", "shape": [1], "dtype": "int32"}]}]}